…
I1012 09:38:07.871064 23684 net.cpp:296] The NetState phase (0) differed from the phase (1) specified by a rule in layer mnist
I1012 09:38:07.871078 23684 net.cpp:296] The NetState phase (0) differed from the phase (1) specified by a rule in layer accuracy
I1012 09:38:07.871162 23684 net.cpp:53] Initializing net from parameters: 
name: "LeNet"
state {
  phase: TRAIN
  level: 0
  stage: ""
}
layer {
  name: "mnist"
  type: "Data"
  top: "data"
  top: "label"
  include {
    phase: TRAIN
  }
  transform_param {
    scale: 0.00390625
  }
  data_param {
    source: "mnist_train_lmdb"
    batch_size: 50
    backend: LMDB
  }
}
layer {
  name: "conv1"
  type: "Convolution"
  bottom: "data"
  top: "conv1"
  param {
    lr_mult: 1
  }
  param {
    lr_mult: 2
  }
  convolution_param {
    num_output: 32
    kernel_size: 5
    stride: 1
    weight_filler {
      type: "xavier"
    }
    bias_filler {
      type: "constant"
    }
  }
}
layer {
  name: "conv1_bn"
  type: "BatchNorm"
  bottom: "conv1"
  top: "conv1"
  batch_norm_param {
    use_global_stats: false
  }
}
layer {
  name: "conv1_scale"
  type: "Scale"
  bottom: "conv1"
  top: "conv1"
  scale_param {
    bias_term: true
  }
}
layer {
  name: "conv1_relu"
  type: "ReLU"
  bottom: "conv1"
  top: "conv1"
}
layer {
  name: "pool1"
  type: "Pooling"
  bottom: "conv1"
  top: "pool1"
  pooling_param {
    pool: MAX
    kernel_size: 2
    stride: 2
  }
}
layer {
  name: "conv2"
  type: "Convolution"
  bottom: "pool1"
  top: "conv2"
  param {
    lr_mult: 1
  }
  param {
    lr_mult: 2
  }
  convolution_param {
    num_output: 64
    kernel_size: 5
    stride: 1
    weight_filler {
      type: "xavier"
    }
    bias_filler {
      type: "constant"
    }
  }
}
layer {
  name: "conv2_bn"
  type: "BatchNorm"
  bottom: "conv2"
  top: "conv2"
  batch_norm_param {
    use_global_stats: false
  }
}
layer {
  name: "conv2_scale"
  type: "Scale"
  bottom: "conv2"
  top: "conv2"
  scale_param {
    bias_term: true
  }
}
layer {
  name: "conv2_relu"
  type: "ReLU"
  bottom: "conv2"
  top: "conv2"
}
layer {
  name: "pool2"
  type: "Pooling"
  bottom: "conv2"
  top: "pool2"
  pooling_param {
    pool: MAX
    kernel_size: 2
    stride: 2
  }
}
layer {
  name: "ip1"
  type: "InnerProduct"
  bottom: "pool2"
  top: "ip1"
  param {
    lr_mult: 1
  }
  param {
    lr_mult: 2
  }
  inner_product_param {
    num_output: 512
    weight_filler {
      type: "xavier"
    }
    bias_filler {
      type: "constant"
    }
  }
}
layer {
  name: "ip1_bn"
  type: "BatchNorm"
  bottom: "ip1"
  top: "ip1"
  batch_norm_param {
    use_global_stats: false
  }
}
layer {
  name: "ip1_scale"
  type: "Scale"
  bottom: "ip1"
  top: "ip1"
  scale_param {
    bias_term: true
  }
}
layer {
  name: "ip1_relu"
  type: "ReLU"
  bottom: "ip1"
  top: "ip1"
}
layer {
  name: "ip2"
  type: "InnerProduct"
  bottom: "ip1"
  top: "ip2"
  param {
    lr_mult: 1
  }
  param {
    lr_mult: 2
  }
  inner_product_param {
    num_output: 10
    weight_filler {
      type: "xavier"
    }
    bias_filler {
      type: "constant"
    }
  }
}
layer {
  name: "loss"
  type: "SoftmaxWithLoss"
  bottom: "ip2"
  bottom: "label"
  top: "loss"
}
I1012 09:38:07.871244 23684 layer_factory.hpp:77] Creating layer mnist
I1012 09:38:07.871328 23684 db_lmdb.cpp:35] Opened lmdb mnist_train_lmdb
I1012 09:38:07.871345 23684 net.cpp:86] Creating Layer mnist
I1012 09:38:07.871357 23684 net.cpp:382] mnist -> data
I1012 09:38:07.871376 23684 net.cpp:382] mnist -> label
I1012 09:38:07.872092 23684 data_layer.cpp:45] output data size: 50,1,28,28
I1012 09:38:07.873188 23684 net.cpp:124] Setting up mnist
I1012 09:38:07.873203 23684 net.cpp:131] Top shape: 50 1 28 28 (39200)
I1012 09:38:07.873206 23684 net.cpp:131] Top shape: 50 (50)
I1012 09:38:07.873232 23684 net.cpp:139] Memory required for data: 157000
I1012 09:38:07.873237 23684 layer_factory.hpp:77] Creating layer conv1
I1012 09:38:07.873255 23684 net.cpp:86] Creating Layer conv1
I1012 09:38:07.873260 23684 net.cpp:408] conv1 <- data
I1012 09:38:07.873268 23684 net.cpp:382] conv1 -> conv1
I1012 09:38:08.325614 23684 net.cpp:124] Setting up conv1
I1012 09:38:08.325636 23684 net.cpp:131] Top shape: 50 32 24 24 (921600)
I1012 09:38:08.325654 23684 net.cpp:139] Memory required for data: 3843400
I1012 09:38:08.325670 23684 layer_factory.hpp:77] Creating layer conv1_bn
I1012 09:38:08.325678 23684 net.cpp:86] Creating Layer conv1_bn
I1012 09:38:08.325682 23684 net.cpp:408] conv1_bn <- conv1
I1012 09:38:08.325686 23684 net.cpp:369] conv1_bn -> conv1 (in-place)
I1012 09:38:08.325867 23684 net.cpp:124] Setting up conv1_bn
I1012 09:38:08.325873 23684 net.cpp:131] Top shape: 50 32 24 24 (921600)
I1012 09:38:08.325876 23684 net.cpp:139] Memory required for data: 7529800
I1012 09:38:08.325882 23684 layer_factory.hpp:77] Creating layer conv1_scale
I1012 09:38:08.325902 23684 net.cpp:86] Creating Layer conv1_scale
I1012 09:38:08.325906 23684 net.cpp:408] conv1_scale <- conv1
I1012 09:38:08.325908 23684 net.cpp:369] conv1_scale -> conv1 (in-place)
I1012 09:38:08.325945 23684 layer_factory.hpp:77] Creating layer conv1_scale
I1012 09:38:08.326076 23684 net.cpp:124] Setting up conv1_scale
I1012 09:38:08.326081 23684 net.cpp:131] Top shape: 50 32 24 24 (921600)
I1012 09:38:08.326097 23684 net.cpp:139] Memory required for data: 11216200
I1012 09:38:08.326100 23684 layer_factory.hpp:77] Creating layer conv1_relu
I1012 09:38:08.326119 23684 net.cpp:86] Creating Layer conv1_relu
I1012 09:38:08.326122 23684 net.cpp:408] conv1_relu <- conv1
I1012 09:38:08.326125 23684 net.cpp:369] conv1_relu -> conv1 (in-place)
I1012 09:38:08.326530 23684 net.cpp:124] Setting up conv1_relu
I1012 09:38:08.326539 23684 net.cpp:131] Top shape: 50 32 24 24 (921600)
I1012 09:38:08.326541 23684 net.cpp:139] Memory required for data: 14902600
I1012 09:38:08.326545 23684 layer_factory.hpp:77] Creating layer pool1
I1012 09:38:08.326563 23684 net.cpp:86] Creating Layer pool1
I1012 09:38:08.326566 23684 net.cpp:408] pool1 <- conv1
I1012 09:38:08.326570 23684 net.cpp:382] pool1 -> pool1
I1012 09:38:08.326608 23684 net.cpp:124] Setting up pool1
I1012 09:38:08.326613 23684 net.cpp:131] Top shape: 50 32 12 12 (230400)
I1012 09:38:08.326617 23684 net.cpp:139] Memory required for data: 15824200
I1012 09:38:08.326618 23684 layer_factory.hpp:77] Creating layer conv2
I1012 09:38:08.326625 23684 net.cpp:86] Creating Layer conv2
I1012 09:38:08.326628 23684 net.cpp:408] conv2 <- pool1
I1012 09:38:08.326632 23684 net.cpp:382] conv2 -> conv2
I1012 09:38:08.328645 23684 net.cpp:124] Setting up conv2
I1012 09:38:08.328655 23684 net.cpp:131] Top shape: 50 64 8 8 (204800)
I1012 09:38:08.328658 23684 net.cpp:139] Memory required for data: 16643400
I1012 09:38:08.328678 23684 layer_factory.hpp:77] Creating layer conv2_bn
I1012 09:38:08.328683 23684 net.cpp:86] Creating Layer conv2_bn
I1012 09:38:08.328686 23684 net.cpp:408] conv2_bn <- conv2
I1012 09:38:08.328691 23684 net.cpp:369] conv2_bn -> conv2 (in-place)
I1012 09:38:08.328858 23684 net.cpp:124] Setting up conv2_bn
I1012 09:38:08.328863 23684 net.cpp:131] Top shape: 50 64 8 8 (204800)
I1012 09:38:08.328866 23684 net.cpp:139] Memory required for data: 17462600
I1012 09:38:08.328871 23684 layer_factory.hpp:77] Creating layer conv2_scale
I1012 09:38:08.328907 23684 net.cpp:86] Creating Layer conv2_scale
I1012 09:38:08.328912 23684 net.cpp:408] conv2_scale <- conv2
I1012 09:38:08.328915 23684 net.cpp:369] conv2_scale -> conv2 (in-place)
I1012 09:38:08.328986 23684 layer_factory.hpp:77] Creating layer conv2_scale
I1012 09:38:08.329104 23684 net.cpp:124] Setting up conv2_scale
I1012 09:38:08.329123 23684 net.cpp:131] Top shape: 50 64 8 8 (204800)
I1012 09:38:08.329124 23684 net.cpp:139] Memory required for data: 18281800
I1012 09:38:08.329128 23684 layer_factory.hpp:77] Creating layer conv2_relu
I1012 09:38:08.329146 23684 net.cpp:86] Creating Layer conv2_relu
I1012 09:38:08.329149 23684 net.cpp:408] conv2_relu <- conv2
I1012 09:38:08.329152 23684 net.cpp:369] conv2_relu -> conv2 (in-place)
I1012 09:38:08.329565 23684 net.cpp:124] Setting up conv2_relu
I1012 09:38:08.329571 23684 net.cpp:131] Top shape: 50 64 8 8 (204800)
I1012 09:38:08.329574 23684 net.cpp:139] Memory required for data: 19101000
I1012 09:38:08.329577 23684 layer_factory.hpp:77] Creating layer pool2
I1012 09:38:08.329581 23684 net.cpp:86] Creating Layer pool2
I1012 09:38:08.329586 23684 net.cpp:408] pool2 <- conv2
I1012 09:38:08.329589 23684 net.cpp:382] pool2 -> pool2
I1012 09:38:08.329623 23684 net.cpp:124] Setting up pool2
I1012 09:38:08.329628 23684 net.cpp:131] Top shape: 50 64 4 4 (51200)
I1012 09:38:08.329630 23684 net.cpp:139] Memory required for data: 19305800
I1012 09:38:08.329633 23684 layer_factory.hpp:77] Creating layer ip1
I1012 09:38:08.329638 23684 net.cpp:86] Creating Layer ip1
I1012 09:38:08.329641 23684 net.cpp:408] ip1 <- pool2
I1012 09:38:08.329645 23684 net.cpp:382] ip1 -> ip1
I1012 09:38:08.332517 23684 net.cpp:124] Setting up ip1
I1012 09:38:08.332527 23684 net.cpp:131] Top shape: 50 512 (25600)
I1012 09:38:08.332530 23684 net.cpp:139] Memory required for data: 19408200
I1012 09:38:08.332535 23684 layer_factory.hpp:77] Creating layer ip1_bn
I1012 09:38:08.332540 23684 net.cpp:86] Creating Layer ip1_bn
I1012 09:38:08.332545 23684 net.cpp:408] ip1_bn <- ip1
I1012 09:38:08.332548 23684 net.cpp:369] ip1_bn -> ip1 (in-place)
I1012 09:38:08.332697 23684 net.cpp:124] Setting up ip1_bn
I1012 09:38:08.332703 23684 net.cpp:131] Top shape: 50 512 (25600)
I1012 09:38:08.332705 23684 net.cpp:139] Memory required for data: 19510600
I1012 09:38:08.332712 23684 layer_factory.hpp:77] Creating layer ip1_scale
I1012 09:38:08.332717 23684 net.cpp:86] Creating Layer ip1_scale
I1012 09:38:08.332720 23684 net.cpp:408] ip1_scale <- ip1
I1012 09:38:08.332723 23684 net.cpp:369] ip1_scale -> ip1 (in-place)
I1012 09:38:08.332751 23684 layer_factory.hpp:77] Creating layer ip1_scale
I1012 09:38:08.332870 23684 net.cpp:124] Setting up ip1_scale
I1012 09:38:08.332875 23684 net.cpp:131] Top shape: 50 512 (25600)
I1012 09:38:08.332877 23684 net.cpp:139] Memory required for data: 19613000
I1012 09:38:08.332881 23684 layer_factory.hpp:77] Creating layer ip1_relu
I1012 09:38:08.332885 23684 net.cpp:86] Creating Layer ip1_relu
I1012 09:38:08.332887 23684 net.cpp:408] ip1_relu <- ip1
I1012 09:38:08.332890 23684 net.cpp:369] ip1_relu -> ip1 (in-place)
I1012 09:38:08.333505 23684 net.cpp:124] Setting up ip1_relu
I1012 09:38:08.333515 23684 net.cpp:131] Top shape: 50 512 (25600)
I1012 09:38:08.333518 23684 net.cpp:139] Memory required for data: 19715400
I1012 09:38:08.333520 23684 layer_factory.hpp:77] Creating layer ip2
I1012 09:38:08.333526 23684 net.cpp:86] Creating Layer ip2
I1012 09:38:08.333529 23684 net.cpp:408] ip2 <- ip1
I1012 09:38:08.333534 23684 net.cpp:382] ip2 -> ip2
I1012 09:38:08.334244 23684 net.cpp:124] Setting up ip2
I1012 09:38:08.334252 23684 net.cpp:131] Top shape: 50 10 (500)
I1012 09:38:08.334254 23684 net.cpp:139] Memory required for data: 19717400
I1012 09:38:08.334259 23684 layer_factory.hpp:77] Creating layer loss
I1012 09:38:08.334266 23684 net.cpp:86] Creating Layer loss
I1012 09:38:08.334270 23684 net.cpp:408] loss <- ip2
I1012 09:38:08.334272 23684 net.cpp:408] loss <- label
I1012 09:38:08.334277 23684 net.cpp:382] loss -> loss
I1012 09:38:08.334286 23684 layer_factory.hpp:77] Creating layer loss
…
I1012 09:38:08.335134 23684 solver.cpp:194] Creating test net (#0) specified by net file: lenet_tn.prototxt
I1012 09:38:08.335166 23684 net.cpp:296] The NetState phase (1) differed from the phase (0) specified by a rule in layer mnist
I1012 09:38:08.335242 23684 net.cpp:53] Initializing net from parameters: 
name: "LeNet"
state {
  phase: TEST
}
layer {
  name: "mnist"
  type: "Data"
  top: "data"
  top: "label"
  include {
    phase: TEST
  }
  transform_param {
    scale: 0.00390625
  }
  data_param {
    source: "mnist_test_lmdb"
    batch_size: 100
    backend: LMDB
  }
}
layer {
  name: "conv1"
  type: "Convolution"
  bottom: "data"
  top: "conv1"
  param {
    lr_mult: 1
  }
  param {
    lr_mult: 2
  }
  convolution_param {
    num_output: 32
    kernel_size: 5
    stride: 1
    weight_filler {
      type: "xavier"
    }
    bias_filler {
      type: "constant"
    }
  }
}
layer {
  name: "conv1_bn"
  type: "BatchNorm"
  bottom: "conv1"
  top: "conv1"
  batch_norm_param {
    use_global_stats: false
  }
}
layer {
  name: "conv1_scale"
  type: "Scale"
  bottom: "conv1"
  top: "conv1"
  scale_param {
    bias_term: true
  }
}
layer {
  name: "conv1_relu"
  type: "ReLU"
  bottom: "conv1"
  top: "conv1"
}
layer {
  name: "pool1"
  type: "Pooling"
  bottom: "conv1"
  top: "pool1"
  pooling_param {
    pool: MAX
    kernel_size: 2
    stride: 2
  }
}
layer {
  name: "conv2"
  type: "Convolution"
  bottom: "pool1"
  top: "conv2"
  param {
    lr_mult: 1
  }
  param {
    lr_mult: 2
  }
  convolution_param {
    num_output: 64
    kernel_size: 5
    stride: 1
    weight_filler {
      type: "xavier"
    }
    bias_filler {
      type: "constant"
    }
  }
}
layer {
  name: "conv2_bn"
  type: "BatchNorm"
  bottom: "conv2"
  top: "conv2"
  batch_norm_param {
    use_global_stats: false
  }
}
layer {
  name: "conv2_scale"
  type: "Scale"
  bottom: "conv2"
  top: "conv2"
  scale_param {
    bias_term: true
  }
}
layer {
  name: "conv2_relu"
  type: "ReLU"
  bottom: "conv2"
  top: "conv2"
}
layer {
  name: "pool2"
  type: "Pooling"
  bottom: "conv2"
  top: "pool2"
  pooling_param {
    pool: MAX
    kernel_size: 2
    stride: 2
  }
}
layer {
  name: "ip1"
  type: "InnerProduct"
  bottom: "pool2"
  top: "ip1"
  param {
    lr_mult: 1
  }
  param {
    lr_mult: 2
  }
  inner_product_param {
    num_output: 512
    weight_filler {
      type: "xavier"
    }
    bias_filler {
      type: "constant"
    }
  }
}
layer {
  name: "ip1_bn"
  type: "BatchNorm"
  bottom: "ip1"
  top: "ip1"
  batch_norm_param {
    use_global_stats: false
  }
}
layer {
  name: "ip1_scale"
  type: "Scale"
  bottom: "ip1"
  top: "ip1"
  scale_param {
    bias_term: true
  }
}
layer {
  name: "ip1_relu"
  type: "ReLU"
  bottom: "ip1"
  top: "ip1"
}
layer {
  name: "ip2"
  type: "InnerProduct"
  bottom: "ip1"
  top: "ip2"
  param {
    lr_mult: 1
  }
  param {
    lr_mult: 2
  }
  inner_product_param {
    num_output: 10
    weight_filler {
      type: "xavier"
    }
    bias_filler {
      type: "constant"
    }
  }
}
layer {
  name: "accuracy"
  type: "Accuracy"
  bottom: "ip2"
  bottom: "label"
  top: "accuracy"
  include {
    phase: TEST
  }
}
layer {
  name: "loss"
  type: "SoftmaxWithLoss"
  bottom: "ip2"
  bottom: "label"
  top: "loss"
}
I1012 09:38:08.335305 23684 layer_factory.hpp:77] Creating layer mnist
I1012 09:38:08.335355 23684 db_lmdb.cpp:35] Opened lmdb mnist_test_lmdb
I1012 09:38:08.335367 23684 net.cpp:86] Creating Layer mnist
I1012 09:38:08.335371 23684 net.cpp:382] mnist -> data
I1012 09:38:08.335378 23684 net.cpp:382] mnist -> label
I1012 09:38:08.335477 23684 data_layer.cpp:45] output data size: 100,1,28,28
I1012 09:38:08.336637 23684 net.cpp:124] Setting up mnist
I1012 09:38:08.336664 23684 net.cpp:131] Top shape: 100 1 28 28 (78400)
I1012 09:38:08.336668 23684 net.cpp:131] Top shape: 100 (100)
I1012 09:38:08.336670 23684 net.cpp:139] Memory required for data: 314000
I1012 09:38:08.336674 23684 layer_factory.hpp:77] Creating layer label_mnist_1_split
I1012 09:38:08.336680 23684 net.cpp:86] Creating Layer label_mnist_1_split
I1012 09:38:08.336683 23684 net.cpp:408] label_mnist_1_split <- label
I1012 09:38:08.336688 23684 net.cpp:382] label_mnist_1_split -> label_mnist_1_split_0
I1012 09:38:08.336694 23684 net.cpp:382] label_mnist_1_split -> label_mnist_1_split_1
I1012 09:38:08.336735 23684 net.cpp:124] Setting up label_mnist_1_split
I1012 09:38:08.336752 23684 net.cpp:131] Top shape: 100 (100)
I1012 09:38:08.336755 23684 net.cpp:131] Top shape: 100 (100)
I1012 09:38:08.336758 23684 net.cpp:139] Memory required for data: 314800
I1012 09:38:08.336776 23684 layer_factory.hpp:77] Creating layer conv1
I1012 09:38:08.336783 23684 net.cpp:86] Creating Layer conv1
I1012 09:38:08.336786 23684 net.cpp:408] conv1 <- data
I1012 09:38:08.336791 23684 net.cpp:382] conv1 -> conv1
I1012 09:38:08.339046 23684 net.cpp:124] Setting up conv1
I1012 09:38:08.339076 23684 net.cpp:131] Top shape: 100 32 24 24 (1843200)
I1012 09:38:08.339079 23684 net.cpp:139] Memory required for data: 7687600
I1012 09:38:08.339087 23684 layer_factory.hpp:77] Creating layer conv1_bn
I1012 09:38:08.339098 23684 net.cpp:86] Creating Layer conv1_bn
I1012 09:38:08.339102 23684 net.cpp:408] conv1_bn <- conv1
I1012 09:38:08.339107 23684 net.cpp:369] conv1_bn -> conv1 (in-place)
I1012 09:38:08.339304 23684 net.cpp:124] Setting up conv1_bn
I1012 09:38:08.339310 23684 net.cpp:131] Top shape: 100 32 24 24 (1843200)
I1012 09:38:08.339325 23684 net.cpp:139] Memory required for data: 15060400
I1012 09:38:08.339332 23684 layer_factory.hpp:77] Creating layer conv1_scale
I1012 09:38:08.339339 23684 net.cpp:86] Creating Layer conv1_scale
I1012 09:38:08.339345 23684 net.cpp:408] conv1_scale <- conv1
I1012 09:38:08.339351 23684 net.cpp:369] conv1_scale -> conv1 (in-place)
I1012 09:38:08.339390 23684 layer_factory.hpp:77] Creating layer conv1_scale
I1012 09:38:08.339583 23684 net.cpp:124] Setting up conv1_scale
I1012 09:38:08.339622 23684 net.cpp:131] Top shape: 100 32 24 24 (1843200)
I1012 09:38:08.339633 23684 net.cpp:139] Memory required for data: 22433200
I1012 09:38:08.339645 23684 layer_factory.hpp:77] Creating layer conv1_relu
I1012 09:38:08.339658 23684 net.cpp:86] Creating Layer conv1_relu
I1012 09:38:08.339668 23684 net.cpp:408] conv1_relu <- conv1
I1012 09:38:08.339679 23684 net.cpp:369] conv1_relu -> conv1 (in-place)
I1012 09:38:08.340534 23684 net.cpp:124] Setting up conv1_relu
I1012 09:38:08.340548 23684 net.cpp:131] Top shape: 100 32 24 24 (1843200)
I1012 09:38:08.340569 23684 net.cpp:139] Memory required for data: 29806000
I1012 09:38:08.340574 23684 layer_factory.hpp:77] Creating layer pool1
I1012 09:38:08.340605 23684 net.cpp:86] Creating Layer pool1
I1012 09:38:08.340608 23684 net.cpp:408] pool1 <- conv1
I1012 09:38:08.340613 23684 net.cpp:382] pool1 -> pool1
I1012 09:38:08.340673 23684 net.cpp:124] Setting up pool1
I1012 09:38:08.340679 23684 net.cpp:131] Top shape: 100 32 12 12 (460800)
I1012 09:38:08.340682 23684 net.cpp:139] Memory required for data: 31649200
I1012 09:38:08.340684 23684 layer_factory.hpp:77] Creating layer conv2
I1012 09:38:08.340694 23684 net.cpp:86] Creating Layer conv2
I1012 09:38:08.340698 23684 net.cpp:408] conv2 <- pool1
I1012 09:38:08.340703 23684 net.cpp:382] conv2 -> conv2
I1012 09:38:08.342873 23684 net.cpp:124] Setting up conv2
I1012 09:38:08.342885 23684 net.cpp:131] Top shape: 100 64 8 8 (409600)
I1012 09:38:08.342888 23684 net.cpp:139] Memory required for data: 33287600
I1012 09:38:08.342909 23684 layer_factory.hpp:77] Creating layer conv2_bn
I1012 09:38:08.342919 23684 net.cpp:86] Creating Layer conv2_bn
I1012 09:38:08.342923 23684 net.cpp:408] conv2_bn <- conv2
I1012 09:38:08.342939 23684 net.cpp:369] conv2_bn -> conv2 (in-place)
I1012 09:38:08.343169 23684 net.cpp:124] Setting up conv2_bn
I1012 09:38:08.343175 23684 net.cpp:131] Top shape: 100 64 8 8 (409600)
I1012 09:38:08.343178 23684 net.cpp:139] Memory required for data: 34926000
I1012 09:38:08.343197 23684 layer_factory.hpp:77] Creating layer conv2_scale
I1012 09:38:08.343204 23684 net.cpp:86] Creating Layer conv2_scale
I1012 09:38:08.343206 23684 net.cpp:408] conv2_scale <- conv2
I1012 09:38:08.343210 23684 net.cpp:369] conv2_scale -> conv2 (in-place)
I1012 09:38:08.343261 23684 layer_factory.hpp:77] Creating layer conv2_scale
I1012 09:38:08.343389 23684 net.cpp:124] Setting up conv2_scale
I1012 09:38:08.343394 23684 net.cpp:131] Top shape: 100 64 8 8 (409600)
I1012 09:38:08.343397 23684 net.cpp:139] Memory required for data: 36564400
I1012 09:38:08.343401 23684 layer_factory.hpp:77] Creating layer conv2_relu
I1012 09:38:08.343406 23684 net.cpp:86] Creating Layer conv2_relu
I1012 09:38:08.343410 23684 net.cpp:408] conv2_relu <- conv2
I1012 09:38:08.343413 23684 net.cpp:369] conv2_relu -> conv2 (in-place)
I1012 09:38:08.343919 23684 net.cpp:124] Setting up conv2_relu
I1012 09:38:08.343927 23684 net.cpp:131] Top shape: 100 64 8 8 (409600)
I1012 09:38:08.343930 23684 net.cpp:139] Memory required for data: 38202800
I1012 09:38:08.343945 23684 layer_factory.hpp:77] Creating layer pool2
I1012 09:38:08.343950 23684 net.cpp:86] Creating Layer pool2
I1012 09:38:08.343953 23684 net.cpp:408] pool2 <- conv2
I1012 09:38:08.343957 23684 net.cpp:382] pool2 -> pool2
I1012 09:38:08.344007 23684 net.cpp:124] Setting up pool2
I1012 09:38:08.344013 23684 net.cpp:131] Top shape: 100 64 4 4 (102400)
I1012 09:38:08.344015 23684 net.cpp:139] Memory required for data: 38612400
I1012 09:38:08.344018 23684 layer_factory.hpp:77] Creating layer ip1
I1012 09:38:08.344023 23684 net.cpp:86] Creating Layer ip1
I1012 09:38:08.344027 23684 net.cpp:408] ip1 <- pool2
I1012 09:38:08.344033 23684 net.cpp:382] ip1 -> ip1
I1012 09:38:08.346951 23684 net.cpp:124] Setting up ip1
I1012 09:38:08.346961 23684 net.cpp:131] Top shape: 100 512 (51200)
I1012 09:38:08.346963 23684 net.cpp:139] Memory required for data: 38817200
I1012 09:38:08.346968 23684 layer_factory.hpp:77] Creating layer ip1_bn
I1012 09:38:08.346976 23684 net.cpp:86] Creating Layer ip1_bn
I1012 09:38:08.346979 23684 net.cpp:408] ip1_bn <- ip1
I1012 09:38:08.346983 23684 net.cpp:369] ip1_bn -> ip1 (in-place)
I1012 09:38:08.347147 23684 net.cpp:124] Setting up ip1_bn
I1012 09:38:08.347152 23684 net.cpp:131] Top shape: 100 512 (51200)
I1012 09:38:08.347156 23684 net.cpp:139] Memory required for data: 39022000
I1012 09:38:08.347162 23684 layer_factory.hpp:77] Creating layer ip1_scale
I1012 09:38:08.347165 23684 net.cpp:86] Creating Layer ip1_scale
I1012 09:38:08.347168 23684 net.cpp:408] ip1_scale <- ip1
I1012 09:38:08.347187 23684 net.cpp:369] ip1_scale -> ip1 (in-place)
I1012 09:38:08.347219 23684 layer_factory.hpp:77] Creating layer ip1_scale
I1012 09:38:08.347344 23684 net.cpp:124] Setting up ip1_scale
I1012 09:38:08.347350 23684 net.cpp:131] Top shape: 100 512 (51200)
I1012 09:38:08.347352 23684 net.cpp:139] Memory required for data: 39226800
I1012 09:38:08.347357 23684 layer_factory.hpp:77] Creating layer ip1_relu
I1012 09:38:08.347360 23684 net.cpp:86] Creating Layer ip1_relu
I1012 09:38:08.347363 23684 net.cpp:408] ip1_relu <- ip1
I1012 09:38:08.347368 23684 net.cpp:369] ip1_relu -> ip1 (in-place)
I1012 09:38:08.348024 23684 net.cpp:124] Setting up ip1_relu
I1012 09:38:08.348033 23684 net.cpp:131] Top shape: 100 512 (51200)
I1012 09:38:08.348035 23684 net.cpp:139] Memory required for data: 39431600
I1012 09:38:08.348038 23684 layer_factory.hpp:77] Creating layer ip2
I1012 09:38:08.348047 23684 net.cpp:86] Creating Layer ip2
I1012 09:38:08.348049 23684 net.cpp:408] ip2 <- ip1
I1012 09:38:08.348055 23684 net.cpp:382] ip2 -> ip2
I1012 09:38:08.348176 23684 net.cpp:124] Setting up ip2
I1012 09:38:08.348182 23684 net.cpp:131] Top shape: 100 10 (1000)
I1012 09:38:08.348184 23684 net.cpp:139] Memory required for data: 39435600
I1012 09:38:08.348188 23684 layer_factory.hpp:77] Creating layer ip2_ip2_0_split
I1012 09:38:08.348192 23684 net.cpp:86] Creating Layer ip2_ip2_0_split
I1012 09:38:08.348196 23684 net.cpp:408] ip2_ip2_0_split <- ip2
I1012 09:38:08.348199 23684 net.cpp:382] ip2_ip2_0_split -> ip2_ip2_0_split_0
I1012 09:38:08.348206 23684 net.cpp:382] ip2_ip2_0_split -> ip2_ip2_0_split_1
I1012 09:38:08.348239 23684 net.cpp:124] Setting up ip2_ip2_0_split
I1012 09:38:08.348244 23684 net.cpp:131] Top shape: 100 10 (1000)
I1012 09:38:08.348248 23684 net.cpp:131] Top shape: 100 10 (1000)
I1012 09:38:08.348249 23684 net.cpp:139] Memory required for data: 39443600
I1012 09:38:08.348253 23684 layer_factory.hpp:77] Creating layer accuracy
I1012 09:38:08.348256 23684 net.cpp:86] Creating Layer accuracy
I1012 09:38:08.348259 23684 net.cpp:408] accuracy <- ip2_ip2_0_split_0
I1012 09:38:08.348263 23684 net.cpp:408] accuracy <- label_mnist_1_split_0
I1012 09:38:08.348266 23684 net.cpp:382] accuracy -> accuracy
…
