…
I1012 11:08:35.901399 13460 net.cpp:300] The NetState phase (0) differed from the phase (1) specified by a rule in layer mnist
I1012 11:08:35.901450 13460 net.cpp:300] The NetState phase (0) differed from the phase (1) specified by a rule in layer accuracy
I1012 11:08:35.901636 13460 net.cpp:57] Initializing net from parameters: 
name: "LeNet"
state {
  phase: TRAIN
  level: 0
  stage: ""
}
layer {
  name: "mnist"
  type: "Data"
  top: "data"
  top: "label"
  include {
    phase: TRAIN
  }
  transform_param {
    scale: 0.00390625
  }
  data_param {
    source: "mnist_train_lmdb"
    batch_size: 50
    backend: LMDB
  }
}
layer {
  name: "conv1"
  type: "Convolution"
  bottom: "data"
  top: "conv1"
  param {
    lr_mult: 1
  }
  param {
    lr_mult: 2
  }
  convolution_param {
    num_output: 32
    kernel_size: 5
    stride: 1
    weight_filler {
      type: "xavier"
    }
    bias_filler {
      type: "constant"
    }
  }
}
layer {
  name: "conv1_bn"
  type: "BatchNorm"
  bottom: "conv1"
  top: "conv1"
  batch_norm_param {
    use_global_stats: false
  }
}
layer {
  name: "conv1_scale"
  type: "Scale"
  bottom: "conv1"
  top: "conv1"
  scale_param {
    bias_term: true
  }
}
layer {
  name: "conv1_relu"
  type: "ReLU"
  bottom: "conv1"
  top: "conv1"
}
layer {
  name: "pool1"
  type: "Pooling"
  bottom: "conv1"
  top: "pool1"
  pooling_param {
    pool: MAX
    kernel_size: 2
    stride: 2
  }
}
layer {
  name: "conv2"
  type: "Convolution"
  bottom: "pool1"
  top: "conv2"
  param {
    lr_mult: 1
  }
  param {
    lr_mult: 2
  }
  convolution_param {
    num_output: 64
    kernel_size: 5
    stride: 1
    weight_filler {
      type: "xavier"
    }
    bias_filler {
      type: "constant"
    }
  }
}
layer {
  name: "conv2_bn"
  type: "BatchNorm"
  bottom: "conv2"
  top: "conv2"
  batch_norm_param {
    use_global_stats: false
  }
}
layer {
  name: "conv2_scale"
  type: "Scale"
  bottom: "conv2"
  top: "conv2"
  scale_param {
    bias_term: true
  }
}
layer {
  name: "conv2_relu"
  type: "ReLU"
  bottom: "conv2"
  top: "conv2"
}
layer {
  name: "pool2"
  type: "Pooling"
  bottom: "conv2"
  top: "pool2"
  pooling_param {
    pool: MAX
    kernel_size: 2
    stride: 2
  }
}
layer {
  name: "ip1"
  type: "InnerProduct"
  bottom: "pool2"
  top: "ip1"
  param {
    lr_mult: 1
  }
  param {
    lr_mult: 2
  }
  inner_product_param {
    num_output: 512
    weight_filler {
      type: "xavier"
    }
    bias_filler {
      type: "constant"
    }
  }
}
layer {
  name: "ip1_bn"
  type: "BatchNorm"
  bottom: "ip1"
  top: "ip1"
  batch_norm_param {
    use_global_stats: false
  }
}
layer {
  name: "ip1_scale"
  type: "Scale"
  bottom: "ip1"
  top: "ip1"
  scale_param {
    bias_term: true
  }
}
layer {
  name: "ip1_relu"
  type: "ReLU"
  bottom: "ip1"
  top: "ip1"
}
layer {
  name: "ip2"
  type: "InnerProduct"
  bottom: "ip1"
  top: "ip2"
  param {
    lr_mult: 1
  }
  param {
    lr_mult: 2
  }
  inner_product_param {
    num_output: 10
    weight_filler {
      type: "xavier"
    }
    bias_filler {
      type: "constant"
    }
  }
}
layer {
  name: "loss"
  type: "SoftmaxWithLoss"
  bottom: "ip2"
  bottom: "label"
  top: "loss"
}
I1012 11:08:35.901808 13460 layer_factory.hpp:77] Creating layer mnist
I1012 11:08:35.966521 13460 db_lmdb.cpp:35] Opened lmdb mnist_train_lmdb
I1012 11:08:35.979676 13460 net.cpp:90] Creating Layer mnist
I1012 11:08:35.979732 13460 net.cpp:386] mnist -> data
I1012 11:08:35.979776 13460 net.cpp:386] mnist -> label
I1012 11:08:35.981479 13460 data_layer.cpp:45] output data size: 50,1,28,28
I1012 11:08:35.983911 13460 net.cpp:128] Setting up mnist
I1012 11:08:35.983944 13460 net.cpp:135] Top shape: 50 1 28 28 (39200)
I1012 11:08:35.983953 13460 net.cpp:135] Top shape: 50 (50)
I1012 11:08:35.983959 13460 net.cpp:143] Memory required for data: 157000
I1012 11:08:35.983971 13460 layer_factory.hpp:77] Creating layer conv1
I1012 11:08:35.984004 13460 net.cpp:90] Creating Layer conv1
I1012 11:08:35.984017 13460 net.cpp:412] conv1 <- data
I1012 11:08:35.984040 13460 net.cpp:386] conv1 -> conv1
I1012 11:08:40.893550 13460 net.cpp:128] Setting up conv1
I1012 11:08:40.893599 13460 net.cpp:135] Top shape: 50 32 24 24 (921600)
I1012 11:08:40.893607 13460 net.cpp:143] Memory required for data: 3843400
I1012 11:08:40.893643 13460 layer_factory.hpp:77] Creating layer conv1_bn
I1012 11:08:40.893667 13460 net.cpp:90] Creating Layer conv1_bn
I1012 11:08:40.893677 13460 net.cpp:412] conv1_bn <- conv1
I1012 11:08:40.893689 13460 net.cpp:373] conv1_bn -> conv1 (in-place)
I1012 11:08:40.894198 13460 net.cpp:128] Setting up conv1_bn
I1012 11:08:40.894222 13460 net.cpp:135] Top shape: 50 32 24 24 (921600)
I1012 11:08:40.894228 13460 net.cpp:143] Memory required for data: 7529800
I1012 11:08:40.894246 13460 layer_factory.hpp:77] Creating layer conv1_scale
I1012 11:08:40.894261 13460 net.cpp:90] Creating Layer conv1_scale
I1012 11:08:40.894269 13460 net.cpp:412] conv1_scale <- conv1
I1012 11:08:40.894279 13460 net.cpp:373] conv1_scale -> conv1 (in-place)
I1012 11:08:40.894385 13460 layer_factory.hpp:77] Creating layer conv1_scale
I1012 11:08:40.894657 13460 net.cpp:128] Setting up conv1_scale
I1012 11:08:40.894673 13460 net.cpp:135] Top shape: 50 32 24 24 (921600)
I1012 11:08:40.894680 13460 net.cpp:143] Memory required for data: 11216200
I1012 11:08:40.894690 13460 layer_factory.hpp:77] Creating layer conv1_relu
I1012 11:08:40.894704 13460 net.cpp:90] Creating Layer conv1_relu
I1012 11:08:40.894712 13460 net.cpp:412] conv1_relu <- conv1
I1012 11:08:40.894721 13460 net.cpp:373] conv1_relu -> conv1 (in-place)
I1012 11:08:40.896040 13460 net.cpp:128] Setting up conv1_relu
I1012 11:08:40.896064 13460 net.cpp:135] Top shape: 50 32 24 24 (921600)
I1012 11:08:40.896071 13460 net.cpp:143] Memory required for data: 14902600
I1012 11:08:40.896078 13460 layer_factory.hpp:77] Creating layer pool1
I1012 11:08:40.896092 13460 net.cpp:90] Creating Layer pool1
I1012 11:08:40.896100 13460 net.cpp:412] pool1 <- conv1
I1012 11:08:40.896111 13460 net.cpp:386] pool1 -> pool1
I1012 11:08:40.896219 13460 net.cpp:128] Setting up pool1
I1012 11:08:40.896234 13460 net.cpp:135] Top shape: 50 32 12 12 (230400)
I1012 11:08:40.896240 13460 net.cpp:143] Memory required for data: 15824200
I1012 11:08:40.896246 13460 layer_factory.hpp:77] Creating layer conv2
I1012 11:08:40.896266 13460 net.cpp:90] Creating Layer conv2
I1012 11:08:40.896279 13460 net.cpp:412] conv2 <- pool1
I1012 11:08:40.896289 13460 net.cpp:386] conv2 -> conv2
I1012 11:08:40.901937 13460 net.cpp:128] Setting up conv2
I1012 11:08:40.901964 13460 net.cpp:135] Top shape: 50 64 8 8 (204800)
I1012 11:08:40.901971 13460 net.cpp:143] Memory required for data: 16643400
I1012 11:08:40.901985 13460 layer_factory.hpp:77] Creating layer conv2_bn
I1012 11:08:40.902004 13460 net.cpp:90] Creating Layer conv2_bn
I1012 11:08:40.902014 13460 net.cpp:412] conv2_bn <- conv2
I1012 11:08:40.902024 13460 net.cpp:373] conv2_bn -> conv2 (in-place)
I1012 11:08:40.902407 13460 net.cpp:128] Setting up conv2_bn
I1012 11:08:40.902422 13460 net.cpp:135] Top shape: 50 64 8 8 (204800)
I1012 11:08:40.902427 13460 net.cpp:143] Memory required for data: 17462600
I1012 11:08:40.902441 13460 layer_factory.hpp:77] Creating layer conv2_scale
I1012 11:08:40.902489 13460 net.cpp:90] Creating Layer conv2_scale
I1012 11:08:40.902498 13460 net.cpp:412] conv2_scale <- conv2
I1012 11:08:40.902505 13460 net.cpp:373] conv2_scale -> conv2 (in-place)
I1012 11:08:40.902587 13460 layer_factory.hpp:77] Creating layer conv2_scale
I1012 11:08:40.902813 13460 net.cpp:128] Setting up conv2_scale
I1012 11:08:40.902827 13460 net.cpp:135] Top shape: 50 64 8 8 (204800)
I1012 11:08:40.902832 13460 net.cpp:143] Memory required for data: 18281800
I1012 11:08:40.902842 13460 layer_factory.hpp:77] Creating layer conv2_relu
I1012 11:08:40.902850 13460 net.cpp:90] Creating Layer conv2_relu
I1012 11:08:40.902858 13460 net.cpp:412] conv2_relu <- conv2
I1012 11:08:40.902865 13460 net.cpp:373] conv2_relu -> conv2 (in-place)
I1012 11:08:40.903964 13460 net.cpp:128] Setting up conv2_relu
I1012 11:08:40.903983 13460 net.cpp:135] Top shape: 50 64 8 8 (204800)
I1012 11:08:40.903988 13460 net.cpp:143] Memory required for data: 19101000
I1012 11:08:40.903995 13460 layer_factory.hpp:77] Creating layer pool2
I1012 11:08:40.904006 13460 net.cpp:90] Creating Layer pool2
I1012 11:08:40.904013 13460 net.cpp:412] pool2 <- conv2
I1012 11:08:40.904021 13460 net.cpp:386] pool2 -> pool2
I1012 11:08:40.904104 13460 net.cpp:128] Setting up pool2
I1012 11:08:40.904119 13460 net.cpp:135] Top shape: 50 64 4 4 (51200)
I1012 11:08:40.904124 13460 net.cpp:143] Memory required for data: 19305800
I1012 11:08:40.904129 13460 layer_factory.hpp:77] Creating layer ip1
I1012 11:08:40.904140 13460 net.cpp:90] Creating Layer ip1
I1012 11:08:40.904145 13460 net.cpp:412] ip1 <- pool2
I1012 11:08:40.904157 13460 net.cpp:386] ip1 -> ip1
I1012 11:08:40.910549 13460 net.cpp:128] Setting up ip1
I1012 11:08:40.910583 13460 net.cpp:135] Top shape: 50 512 (25600)
I1012 11:08:40.910588 13460 net.cpp:143] Memory required for data: 19408200
I1012 11:08:40.910600 13460 layer_factory.hpp:77] Creating layer ip1_bn
I1012 11:08:40.910616 13460 net.cpp:90] Creating Layer ip1_bn
I1012 11:08:40.910624 13460 net.cpp:412] ip1_bn <- ip1
I1012 11:08:40.910632 13460 net.cpp:373] ip1_bn -> ip1 (in-place)
I1012 11:08:40.910974 13460 net.cpp:128] Setting up ip1_bn
I1012 11:08:40.910985 13460 net.cpp:135] Top shape: 50 512 (25600)
I1012 11:08:40.910991 13460 net.cpp:143] Memory required for data: 19510600
I1012 11:08:40.911005 13460 layer_factory.hpp:77] Creating layer ip1_scale
I1012 11:08:40.911015 13460 net.cpp:90] Creating Layer ip1_scale
I1012 11:08:40.911020 13460 net.cpp:412] ip1_scale <- ip1
I1012 11:08:40.911027 13460 net.cpp:373] ip1_scale -> ip1 (in-place)
I1012 11:08:40.911093 13460 layer_factory.hpp:77] Creating layer ip1_scale
I1012 11:08:40.911298 13460 net.cpp:128] Setting up ip1_scale
I1012 11:08:40.911309 13460 net.cpp:135] Top shape: 50 512 (25600)
I1012 11:08:40.911314 13460 net.cpp:143] Memory required for data: 19613000
I1012 11:08:40.911322 13460 layer_factory.hpp:77] Creating layer ip1_relu
I1012 11:08:40.911332 13460 net.cpp:90] Creating Layer ip1_relu
I1012 11:08:40.911339 13460 net.cpp:412] ip1_relu <- ip1
I1012 11:08:40.911345 13460 net.cpp:373] ip1_relu -> ip1 (in-place)
I1012 11:08:40.913451 13460 net.cpp:128] Setting up ip1_relu
I1012 11:08:40.913472 13460 net.cpp:135] Top shape: 50 512 (25600)
I1012 11:08:40.913478 13460 net.cpp:143] Memory required for data: 19715400
I1012 11:08:40.913484 13460 layer_factory.hpp:77] Creating layer ip2
I1012 11:08:40.913496 13460 net.cpp:90] Creating Layer ip2
I1012 11:08:40.913502 13460 net.cpp:412] ip2 <- ip1
I1012 11:08:40.913514 13460 net.cpp:386] ip2 -> ip2
I1012 11:08:40.914924 13460 net.cpp:128] Setting up ip2
I1012 11:08:40.914944 13460 net.cpp:135] Top shape: 50 10 (500)
I1012 11:08:40.914950 13460 net.cpp:143] Memory required for data: 19717400
I1012 11:08:40.914961 13460 layer_factory.hpp:77] Creating layer loss
I1012 11:08:40.914981 13460 net.cpp:90] Creating Layer loss
I1012 11:08:40.914988 13460 net.cpp:412] loss <- ip2
I1012 11:08:40.914995 13460 net.cpp:412] loss <- label
I1012 11:08:40.915005 13460 net.cpp:386] loss -> loss
I1012 11:08:40.915022 13460 layer_factory.hpp:77] Creating layer loss
…
I1012 11:08:40.916756 13460 solver.cpp:199] Creating test net (#0) specified by net file: lenet_tn.prototxt
I1012 11:08:40.916800 13460 net.cpp:300] The NetState phase (1) differed from the phase (0) specified by a rule in layer mnist
I1012 11:08:40.916967 13460 net.cpp:57] Initializing net from parameters: 
name: "LeNet"
state {
  phase: TEST
}
layer {
  name: "mnist"
  type: "Data"
  top: "data"
  top: "label"
  include {
    phase: TEST
  }
  transform_param {
    scale: 0.00390625
  }
  data_param {
    source: "mnist_test_lmdb"
    batch_size: 100
    backend: LMDB
  }
}
layer {
  name: "conv1"
  type: "Convolution"
  bottom: "data"
  top: "conv1"
  param {
    lr_mult: 1
  }
  param {
    lr_mult: 2
  }
  convolution_param {
    num_output: 32
    kernel_size: 5
    stride: 1
    weight_filler {
      type: "xavier"
    }
    bias_filler {
      type: "constant"
    }
  }
}
layer {
  name: "conv1_bn"
  type: "BatchNorm"
  bottom: "conv1"
  top: "conv1"
  batch_norm_param {
    use_global_stats: false
  }
}
layer {
  name: "conv1_scale"
  type: "Scale"
  bottom: "conv1"
  top: "conv1"
  scale_param {
    bias_term: true
  }
}
layer {
  name: "conv1_relu"
  type: "ReLU"
  bottom: "conv1"
  top: "conv1"
}
layer {
  name: "pool1"
  type: "Pooling"
  bottom: "conv1"
  top: "pool1"
  pooling_param {
    pool: MAX
    kernel_size: 2
    stride: 2
  }
}
layer {
  name: "conv2"
  type: "Convolution"
  bottom: "pool1"
  top: "conv2"
  param {
    lr_mult: 1
  }
  param {
    lr_mult: 2
  }
  convolution_param {
    num_output: 64
    kernel_size: 5
    stride: 1
    weight_filler {
      type: "xavier"
    }
    bias_filler {
      type: "constant"
    }
  }
}
layer {
  name: "conv2_bn"
  type: "BatchNorm"
  bottom: "conv2"
  top: "conv2"
  batch_norm_param {
    use_global_stats: false
  }
}
layer {
  name: "conv2_scale"
  type: "Scale"
  bottom: "conv2"
  top: "conv2"
  scale_param {
    bias_term: true
  }
}
layer {
  name: "conv2_relu"
  type: "ReLU"
  bottom: "conv2"
  top: "conv2"
}
layer {
  name: "pool2"
  type: "Pooling"
  bottom: "conv2"
  top: "pool2"
  pooling_param {
    pool: MAX
    kernel_size: 2
    stride: 2
  }
}
layer {
  name: "ip1"
  type: "InnerProduct"
  bottom: "pool2"
  top: "ip1"
  param {
    lr_mult: 1
  }
  param {
    lr_mult: 2
  }
  inner_product_param {
    num_output: 512
    weight_filler {
      type: "xavier"
    }
    bias_filler {
      type: "constant"
    }
  }
}
layer {
  name: "ip1_bn"
  type: "BatchNorm"
  bottom: "ip1"
  top: "ip1"
  batch_norm_param {
    use_global_stats: false
  }
}
layer {
  name: "ip1_scale"
  type: "Scale"
  bottom: "ip1"
  top: "ip1"
  scale_param {
    bias_term: true
  }
}
layer {
  name: "ip1_relu"
  type: "ReLU"
  bottom: "ip1"
  top: "ip1"
}
layer {
  name: "ip2"
  type: "InnerProduct"
  bottom: "ip1"
  top: "ip2"
  param {
    lr_mult: 1
  }
  param {
    lr_mult: 2
  }
  inner_product_param {
    num_output: 10
    weight_filler {
      type: "xavier"
    }
    bias_filler {
      type: "constant"
    }
  }
}
layer {
  name: "accuracy"
  type: "Accuracy"
  bottom: "ip2"
  bottom: "label"
  top: "accuracy"
  include {
    phase: TEST
  }
}
layer {
  name: "loss"
  type: "SoftmaxWithLoss"
  bottom: "ip2"
  bottom: "label"
  top: "loss"
}
I1012 11:08:40.917110 13460 layer_factory.hpp:77] Creating layer mnist
I1012 11:08:40.965226 13460 db_lmdb.cpp:35] Opened lmdb mnist_test_lmdb
I1012 11:08:40.976660 13460 net.cpp:90] Creating Layer mnist
I1012 11:08:40.976711 13460 net.cpp:386] mnist -> data
I1012 11:08:40.976745 13460 net.cpp:386] mnist -> label
I1012 11:08:40.977077 13460 data_layer.cpp:45] output data size: 100,1,28,28
I1012 11:08:40.979779 13460 net.cpp:128] Setting up mnist
I1012 11:08:40.979810 13460 net.cpp:135] Top shape: 100 1 28 28 (78400)
I1012 11:08:40.979820 13460 net.cpp:135] Top shape: 100 (100)
I1012 11:08:40.979825 13460 net.cpp:143] Memory required for data: 314000
I1012 11:08:40.979835 13460 layer_factory.hpp:77] Creating layer label_mnist_1_split
I1012 11:08:40.979852 13460 net.cpp:90] Creating Layer label_mnist_1_split
I1012 11:08:40.979861 13460 net.cpp:412] label_mnist_1_split <- label
I1012 11:08:40.979871 13460 net.cpp:386] label_mnist_1_split -> label_mnist_1_split_0
I1012 11:08:40.979889 13460 net.cpp:386] label_mnist_1_split -> label_mnist_1_split_1
I1012 11:08:40.979996 13460 net.cpp:128] Setting up label_mnist_1_split
I1012 11:08:40.980010 13460 net.cpp:135] Top shape: 100 (100)
I1012 11:08:40.980016 13460 net.cpp:135] Top shape: 100 (100)
I1012 11:08:40.980021 13460 net.cpp:143] Memory required for data: 314800
I1012 11:08:40.980027 13460 layer_factory.hpp:77] Creating layer conv1
I1012 11:08:40.980052 13460 net.cpp:90] Creating Layer conv1
I1012 11:08:40.980060 13460 net.cpp:412] conv1 <- data
I1012 11:08:40.980070 13460 net.cpp:386] conv1 -> conv1
I1012 11:08:40.985460 13460 net.cpp:128] Setting up conv1
I1012 11:08:40.985540 13460 net.cpp:135] Top shape: 100 32 24 24 (1843200)
I1012 11:08:40.985571 13460 net.cpp:143] Memory required for data: 7687600
I1012 11:08:40.985607 13460 layer_factory.hpp:77] Creating layer conv1_bn
I1012 11:08:40.985647 13460 net.cpp:90] Creating Layer conv1_bn
I1012 11:08:40.985672 13460 net.cpp:412] conv1_bn <- conv1
I1012 11:08:40.985699 13460 net.cpp:373] conv1_bn -> conv1 (in-place)
I1012 11:08:40.986138 13460 net.cpp:128] Setting up conv1_bn
I1012 11:08:40.986158 13460 net.cpp:135] Top shape: 100 32 24 24 (1843200)
I1012 11:08:40.986165 13460 net.cpp:143] Memory required for data: 15060400
I1012 11:08:40.986181 13460 layer_factory.hpp:77] Creating layer conv1_scale
I1012 11:08:40.986194 13460 net.cpp:90] Creating Layer conv1_scale
I1012 11:08:40.986201 13460 net.cpp:412] conv1_scale <- conv1
I1012 11:08:40.986208 13460 net.cpp:373] conv1_scale -> conv1 (in-place)
I1012 11:08:40.986295 13460 layer_factory.hpp:77] Creating layer conv1_scale
I1012 11:08:40.986536 13460 net.cpp:128] Setting up conv1_scale
I1012 11:08:40.986551 13460 net.cpp:135] Top shape: 100 32 24 24 (1843200)
I1012 11:08:40.986557 13460 net.cpp:143] Memory required for data: 22433200
I1012 11:08:40.986565 13460 layer_factory.hpp:77] Creating layer conv1_relu
I1012 11:08:40.986577 13460 net.cpp:90] Creating Layer conv1_relu
I1012 11:08:40.986585 13460 net.cpp:412] conv1_relu <- conv1
I1012 11:08:40.986593 13460 net.cpp:373] conv1_relu -> conv1 (in-place)
I1012 11:08:40.988060 13460 net.cpp:128] Setting up conv1_relu
I1012 11:08:40.988082 13460 net.cpp:135] Top shape: 100 32 24 24 (1843200)
I1012 11:08:40.988113 13460 net.cpp:143] Memory required for data: 29806000
I1012 11:08:40.988121 13460 layer_factory.hpp:77] Creating layer pool1
I1012 11:08:40.988131 13460 net.cpp:90] Creating Layer pool1
I1012 11:08:40.988137 13460 net.cpp:412] pool1 <- conv1
I1012 11:08:40.988148 13460 net.cpp:386] pool1 -> pool1
I1012 11:08:40.988235 13460 net.cpp:128] Setting up pool1
I1012 11:08:40.988248 13460 net.cpp:135] Top shape: 100 32 12 12 (460800)
I1012 11:08:40.988253 13460 net.cpp:143] Memory required for data: 31649200
I1012 11:08:40.988258 13460 layer_factory.hpp:77] Creating layer conv2
I1012 11:08:40.988274 13460 net.cpp:90] Creating Layer conv2
I1012 11:08:40.988281 13460 net.cpp:412] conv2 <- pool1
I1012 11:08:40.988291 13460 net.cpp:386] conv2 -> conv2
I1012 11:08:40.993656 13460 net.cpp:128] Setting up conv2
I1012 11:08:40.993686 13460 net.cpp:135] Top shape: 100 64 8 8 (409600)
I1012 11:08:40.993692 13460 net.cpp:143] Memory required for data: 33287600
I1012 11:08:40.993708 13460 layer_factory.hpp:77] Creating layer conv2_bn
I1012 11:08:40.993726 13460 net.cpp:90] Creating Layer conv2_bn
I1012 11:08:40.993733 13460 net.cpp:412] conv2_bn <- conv2
I1012 11:08:40.993742 13460 net.cpp:373] conv2_bn -> conv2 (in-place)
I1012 11:08:40.994117 13460 net.cpp:128] Setting up conv2_bn
I1012 11:08:40.994132 13460 net.cpp:135] Top shape: 100 64 8 8 (409600)
I1012 11:08:40.994138 13460 net.cpp:143] Memory required for data: 34926000
I1012 11:08:40.994148 13460 layer_factory.hpp:77] Creating layer conv2_scale
I1012 11:08:40.994159 13460 net.cpp:90] Creating Layer conv2_scale
I1012 11:08:40.994166 13460 net.cpp:412] conv2_scale <- conv2
I1012 11:08:40.994174 13460 net.cpp:373] conv2_scale -> conv2 (in-place)
I1012 11:08:40.994254 13460 layer_factory.hpp:77] Creating layer conv2_scale
I1012 11:08:40.994467 13460 net.cpp:128] Setting up conv2_scale
I1012 11:08:40.994479 13460 net.cpp:135] Top shape: 100 64 8 8 (409600)
I1012 11:08:40.994485 13460 net.cpp:143] Memory required for data: 36564400
I1012 11:08:40.994493 13460 layer_factory.hpp:77] Creating layer conv2_relu
I1012 11:08:40.994504 13460 net.cpp:90] Creating Layer conv2_relu
I1012 11:08:40.994510 13460 net.cpp:412] conv2_relu <- conv2
I1012 11:08:40.994518 13460 net.cpp:373] conv2_relu -> conv2 (in-place)
I1012 11:08:40.995584 13460 net.cpp:128] Setting up conv2_relu
I1012 11:08:40.995604 13460 net.cpp:135] Top shape: 100 64 8 8 (409600)
I1012 11:08:40.995609 13460 net.cpp:143] Memory required for data: 38202800
I1012 11:08:40.995615 13460 layer_factory.hpp:77] Creating layer pool2
I1012 11:08:40.995626 13460 net.cpp:90] Creating Layer pool2
I1012 11:08:40.995635 13460 net.cpp:412] pool2 <- conv2
I1012 11:08:40.995642 13460 net.cpp:386] pool2 -> pool2
I1012 11:08:40.995726 13460 net.cpp:128] Setting up pool2
I1012 11:08:40.995738 13460 net.cpp:135] Top shape: 100 64 4 4 (102400)
I1012 11:08:40.995743 13460 net.cpp:143] Memory required for data: 38612400
I1012 11:08:40.995748 13460 layer_factory.hpp:77] Creating layer ip1
I1012 11:08:40.995759 13460 net.cpp:90] Creating Layer ip1
I1012 11:08:40.995765 13460 net.cpp:412] ip1 <- pool2
I1012 11:08:40.995774 13460 net.cpp:386] ip1 -> ip1
I1012 11:08:41.001829 13460 net.cpp:128] Setting up ip1
I1012 11:08:41.001853 13460 net.cpp:135] Top shape: 100 512 (51200)
I1012 11:08:41.001858 13460 net.cpp:143] Memory required for data: 38817200
I1012 11:08:41.001869 13460 layer_factory.hpp:77] Creating layer ip1_bn
I1012 11:08:41.001884 13460 net.cpp:90] Creating Layer ip1_bn
I1012 11:08:41.001893 13460 net.cpp:412] ip1_bn <- ip1
I1012 11:08:41.001901 13460 net.cpp:373] ip1_bn -> ip1 (in-place)
I1012 11:08:41.002251 13460 net.cpp:128] Setting up ip1_bn
I1012 11:08:41.002262 13460 net.cpp:135] Top shape: 100 512 (51200)
I1012 11:08:41.002267 13460 net.cpp:143] Memory required for data: 39022000
I1012 11:08:41.002286 13460 layer_factory.hpp:77] Creating layer ip1_scale
I1012 11:08:41.002295 13460 net.cpp:90] Creating Layer ip1_scale
I1012 11:08:41.002301 13460 net.cpp:412] ip1_scale <- ip1
I1012 11:08:41.002372 13460 net.cpp:373] ip1_scale -> ip1 (in-place)
I1012 11:08:41.002450 13460 layer_factory.hpp:77] Creating layer ip1_scale
I1012 11:08:41.002661 13460 net.cpp:128] Setting up ip1_scale
I1012 11:08:41.002674 13460 net.cpp:135] Top shape: 100 512 (51200)
I1012 11:08:41.002679 13460 net.cpp:143] Memory required for data: 39226800
I1012 11:08:41.002688 13460 layer_factory.hpp:77] Creating layer ip1_relu
I1012 11:08:41.002699 13460 net.cpp:90] Creating Layer ip1_relu
I1012 11:08:41.002705 13460 net.cpp:412] ip1_relu <- ip1
I1012 11:08:41.002712 13460 net.cpp:373] ip1_relu -> ip1 (in-place)
I1012 11:08:41.004072 13460 net.cpp:128] Setting up ip1_relu
I1012 11:08:41.004093 13460 net.cpp:135] Top shape: 100 512 (51200)
I1012 11:08:41.004098 13460 net.cpp:143] Memory required for data: 39431600
I1012 11:08:41.004104 13460 layer_factory.hpp:77] Creating layer ip2
I1012 11:08:41.004118 13460 net.cpp:90] Creating Layer ip2
I1012 11:08:41.004124 13460 net.cpp:412] ip2 <- ip1
I1012 11:08:41.004133 13460 net.cpp:386] ip2 -> ip2
I1012 11:08:41.004393 13460 net.cpp:128] Setting up ip2
I1012 11:08:41.004405 13460 net.cpp:135] Top shape: 100 10 (1000)
I1012 11:08:41.004410 13460 net.cpp:143] Memory required for data: 39435600
I1012 11:08:41.004420 13460 layer_factory.hpp:77] Creating layer ip2_ip2_0_split
I1012 11:08:41.004427 13460 net.cpp:90] Creating Layer ip2_ip2_0_split
I1012 11:08:41.004432 13460 net.cpp:412] ip2_ip2_0_split <- ip2
I1012 11:08:41.004442 13460 net.cpp:386] ip2_ip2_0_split -> ip2_ip2_0_split_0
I1012 11:08:41.004453 13460 net.cpp:386] ip2_ip2_0_split -> ip2_ip2_0_split_1
I1012 11:08:41.004525 13460 net.cpp:128] Setting up ip2_ip2_0_split
I1012 11:08:41.004537 13460 net.cpp:135] Top shape: 100 10 (1000)
I1012 11:08:41.004544 13460 net.cpp:135] Top shape: 100 10 (1000)
I1012 11:08:41.004549 13460 net.cpp:143] Memory required for data: 39443600
I1012 11:08:41.004554 13460 layer_factory.hpp:77] Creating layer accuracy
I1012 11:08:41.004562 13460 net.cpp:90] Creating Layer accuracy
I1012 11:08:41.004570 13460 net.cpp:412] accuracy <- ip2_ip2_0_split_0
I1012 11:08:41.004576 13460 net.cpp:412] accuracy <- label_mnist_1_split_0
I1012 11:08:41.004583 13460 net.cpp:386] accuracy -> accuracy
…
