…
I1012 09:33:27.069696 23448 net.cpp:296] The NetState phase (0) differed from the phase (1) specified by a rule in layer mnist
I1012 09:33:27.069710 23448 net.cpp:296] The NetState phase (0) differed from the phase (1) specified by a rule in layer accuracy
I1012 09:33:27.069793 23448 net.cpp:53] Initializing net from parameters: 
name: "LeNet"
state {
  phase: TRAIN
  level: 0
  stage: ""
}
layer {
  name: "mnist"
  type: "Data"
  top: "data"
  top: "label"
  include {
    phase: TRAIN
  }
  transform_param {
    scale: 0.00390625
  }
  data_param {
    source: "mnist_train_lmdb"
    batch_size: 50
    backend: LMDB
  }
}
layer {
  name: "conv1"
  type: "Convolution"
  bottom: "data"
  top: "conv1"
  param {
    lr_mult: 1
  }
  param {
    lr_mult: 2
  }
  convolution_param {
    num_output: 32
    kernel_size: 5
    stride: 1
    weight_filler {
      type: "xavier"
    }
    bias_filler {
      type: "constant"
    }
  }
}
layer {
  name: "conv1_bn"
  type: "BatchNorm"
  bottom: "conv1"
  top: "conv1"
  batch_norm_param {
    use_global_stats: false
  }
}
layer {
  name: "conv1_scale"
  type: "Scale"
  bottom: "conv1"
  top: "conv1"
  scale_param {
    bias_term: true
  }
}
layer {
  name: "conv1_relu"
  type: "ReLU"
  bottom: "conv1"
  top: "conv1"
}
layer {
  name: "pool1"
  type: "Pooling"
  bottom: "conv1"
  top: "pool1"
  pooling_param {
    pool: MAX
    kernel_size: 2
    stride: 2
  }
}
layer {
  name: "conv2"
  type: "Convolution"
  bottom: "pool1"
  top: "conv2"
  param {
    lr_mult: 1
  }
  param {
    lr_mult: 2
  }
  convolution_param {
    num_output: 64
    kernel_size: 5
    stride: 1
    weight_filler {
      type: "xavier"
    }
    bias_filler {
      type: "constant"
    }
  }
}
layer {
  name: "conv2_bn"
  type: "BatchNorm"
  bottom: "conv2"
  top: "conv2"
  batch_norm_param {
    use_global_stats: false
  }
}
layer {
  name: "conv2_scale"
  type: "Scale"
  bottom: "conv2"
  top: "conv2"
  scale_param {
    bias_term: true
  }
}
layer {
  name: "conv2_relu"
  type: "ReLU"
  bottom: "conv2"
  top: "conv2"
}
layer {
  name: "pool2"
  type: "Pooling"
  bottom: "conv2"
  top: "pool2"
  pooling_param {
    pool: MAX
    kernel_size: 2
    stride: 2
  }
}
layer {
  name: "ip1"
  type: "InnerProduct"
  bottom: "pool2"
  top: "ip1"
  param {
    lr_mult: 1
  }
  param {
    lr_mult: 2
  }
  inner_product_param {
    num_output: 512
    weight_filler {
      type: "xavier"
    }
    bias_filler {
      type: "constant"
    }
  }
}
layer {
  name: "ip1_bn"
  type: "BatchNorm"
  bottom: "ip1"
  top: "ip1"
  batch_norm_param {
    use_global_stats: false
  }
}
layer {
  name: "ip1_scale"
  type: "Scale"
  bottom: "ip1"
  top: "ip1"
  scale_param {
    bias_term: true
  }
}
layer {
  name: "ip1_relu"
  type: "ReLU"
  bottom: "ip1"
  top: "ip1"
}
layer {
  name: "ip2"
  type: "InnerProduct"
  bottom: "ip1"
  top: "ip2"
  param {
    lr_mult: 1
  }
  param {
    lr_mult: 2
  }
  inner_product_param {
    num_output: 10
    weight_filler {
      type: "xavier"
    }
    bias_filler {
      type: "constant"
    }
  }
}
layer {
  name: "loss"
  type: "SoftmaxWithLoss"
  bottom: "ip2"
  bottom: "label"
  top: "loss"
}
I1012 09:33:27.069846 23448 layer_factory.hpp:77] Creating layer mnist
I1012 09:33:27.070000 23448 db_lmdb.cpp:35] Opened lmdb mnist_train_lmdb
I1012 09:33:27.070019 23448 net.cpp:86] Creating Layer mnist
I1012 09:33:27.070026 23448 net.cpp:382] mnist -> data
I1012 09:33:27.070044 23448 net.cpp:382] mnist -> label
I1012 09:33:27.070715 23448 data_layer.cpp:45] output data size: 50,1,28,28
I1012 09:33:27.071792 23448 net.cpp:124] Setting up mnist
I1012 09:33:27.071807 23448 net.cpp:131] Top shape: 50 1 28 28 (39200)
I1012 09:33:27.071811 23448 net.cpp:131] Top shape: 50 (50)
I1012 09:33:27.071813 23448 net.cpp:139] Memory required for data: 157000
I1012 09:33:27.071818 23448 layer_factory.hpp:77] Creating layer conv1
I1012 09:33:27.071833 23448 net.cpp:86] Creating Layer conv1
I1012 09:33:27.071838 23448 net.cpp:408] conv1 <- data
I1012 09:33:27.071862 23448 net.cpp:382] conv1 -> conv1
I1012 09:33:27.527261 23448 net.cpp:124] Setting up conv1
I1012 09:33:27.527282 23448 net.cpp:131] Top shape: 50 32 24 24 (921600)
I1012 09:33:27.527300 23448 net.cpp:139] Memory required for data: 3843400
I1012 09:33:27.527315 23448 layer_factory.hpp:77] Creating layer conv1_bn
I1012 09:33:27.527325 23448 net.cpp:86] Creating Layer conv1_bn
I1012 09:33:27.527328 23448 net.cpp:408] conv1_bn <- conv1
I1012 09:33:27.527333 23448 net.cpp:369] conv1_bn -> conv1 (in-place)
I1012 09:33:27.527516 23448 net.cpp:124] Setting up conv1_bn
I1012 09:33:27.527523 23448 net.cpp:131] Top shape: 50 32 24 24 (921600)
I1012 09:33:27.527525 23448 net.cpp:139] Memory required for data: 7529800
I1012 09:33:27.527546 23448 layer_factory.hpp:77] Creating layer conv1_scale
I1012 09:33:27.527551 23448 net.cpp:86] Creating Layer conv1_scale
I1012 09:33:27.527554 23448 net.cpp:408] conv1_scale <- conv1
I1012 09:33:27.527557 23448 net.cpp:369] conv1_scale -> conv1 (in-place)
I1012 09:33:27.527595 23448 layer_factory.hpp:77] Creating layer conv1_scale
I1012 09:33:27.527741 23448 net.cpp:124] Setting up conv1_scale
I1012 09:33:27.527747 23448 net.cpp:131] Top shape: 50 32 24 24 (921600)
I1012 09:33:27.527750 23448 net.cpp:139] Memory required for data: 11216200
I1012 09:33:27.527755 23448 layer_factory.hpp:77] Creating layer conv1_relu
I1012 09:33:27.527773 23448 net.cpp:86] Creating Layer conv1_relu
I1012 09:33:27.527776 23448 net.cpp:408] conv1_relu <- conv1
I1012 09:33:27.527779 23448 net.cpp:369] conv1_relu -> conv1 (in-place)
I1012 09:33:27.528259 23448 net.cpp:124] Setting up conv1_relu
I1012 09:33:27.528267 23448 net.cpp:131] Top shape: 50 32 24 24 (921600)
I1012 09:33:27.528270 23448 net.cpp:139] Memory required for data: 14902600
I1012 09:33:27.528272 23448 layer_factory.hpp:77] Creating layer pool1
I1012 09:33:27.528291 23448 net.cpp:86] Creating Layer pool1
I1012 09:33:27.528295 23448 net.cpp:408] pool1 <- conv1
I1012 09:33:27.528300 23448 net.cpp:382] pool1 -> pool1
I1012 09:33:27.528367 23448 net.cpp:124] Setting up pool1
I1012 09:33:27.528374 23448 net.cpp:131] Top shape: 50 32 12 12 (230400)
I1012 09:33:27.528376 23448 net.cpp:139] Memory required for data: 15824200
I1012 09:33:27.528379 23448 layer_factory.hpp:77] Creating layer conv2
I1012 09:33:27.528388 23448 net.cpp:86] Creating Layer conv2
I1012 09:33:27.528389 23448 net.cpp:408] conv2 <- pool1
I1012 09:33:27.528395 23448 net.cpp:382] conv2 -> conv2
I1012 09:33:27.530695 23448 net.cpp:124] Setting up conv2
I1012 09:33:27.530707 23448 net.cpp:131] Top shape: 50 64 8 8 (204800)
I1012 09:33:27.530710 23448 net.cpp:139] Memory required for data: 16643400
I1012 09:33:27.530716 23448 layer_factory.hpp:77] Creating layer conv2_bn
I1012 09:33:27.530722 23448 net.cpp:86] Creating Layer conv2_bn
I1012 09:33:27.530725 23448 net.cpp:408] conv2_bn <- conv2
I1012 09:33:27.530752 23448 net.cpp:369] conv2_bn -> conv2 (in-place)
I1012 09:33:27.530966 23448 net.cpp:124] Setting up conv2_bn
I1012 09:33:27.530972 23448 net.cpp:131] Top shape: 50 64 8 8 (204800)
I1012 09:33:27.530974 23448 net.cpp:139] Memory required for data: 17462600
I1012 09:33:27.530979 23448 layer_factory.hpp:77] Creating layer conv2_scale
I1012 09:33:27.530984 23448 net.cpp:86] Creating Layer conv2_scale
I1012 09:33:27.531003 23448 net.cpp:408] conv2_scale <- conv2
I1012 09:33:27.531023 23448 net.cpp:369] conv2_scale -> conv2 (in-place)
I1012 09:33:27.531072 23448 layer_factory.hpp:77] Creating layer conv2_scale
I1012 09:33:27.531199 23448 net.cpp:124] Setting up conv2_scale
I1012 09:33:27.531205 23448 net.cpp:131] Top shape: 50 64 8 8 (204800)
I1012 09:33:27.531208 23448 net.cpp:139] Memory required for data: 18281800
I1012 09:33:27.531226 23448 layer_factory.hpp:77] Creating layer conv2_relu
I1012 09:33:27.531232 23448 net.cpp:86] Creating Layer conv2_relu
I1012 09:33:27.531234 23448 net.cpp:408] conv2_relu <- conv2
I1012 09:33:27.531239 23448 net.cpp:369] conv2_relu -> conv2 (in-place)
I1012 09:33:27.531769 23448 net.cpp:124] Setting up conv2_relu
I1012 09:33:27.531776 23448 net.cpp:131] Top shape: 50 64 8 8 (204800)
I1012 09:33:27.531793 23448 net.cpp:139] Memory required for data: 19101000
I1012 09:33:27.531796 23448 layer_factory.hpp:77] Creating layer pool2
I1012 09:33:27.531800 23448 net.cpp:86] Creating Layer pool2
I1012 09:33:27.531816 23448 net.cpp:408] pool2 <- conv2
I1012 09:33:27.531821 23448 net.cpp:382] pool2 -> pool2
I1012 09:33:27.531875 23448 net.cpp:124] Setting up pool2
I1012 09:33:27.531893 23448 net.cpp:131] Top shape: 50 64 4 4 (51200)
I1012 09:33:27.531896 23448 net.cpp:139] Memory required for data: 19305800
I1012 09:33:27.531898 23448 layer_factory.hpp:77] Creating layer ip1
I1012 09:33:27.531919 23448 net.cpp:86] Creating Layer ip1
I1012 09:33:27.531920 23448 net.cpp:408] ip1 <- pool2
I1012 09:33:27.531927 23448 net.cpp:382] ip1 -> ip1
I1012 09:33:27.534870 23448 net.cpp:124] Setting up ip1
I1012 09:33:27.534880 23448 net.cpp:131] Top shape: 50 512 (25600)
I1012 09:33:27.534883 23448 net.cpp:139] Memory required for data: 19408200
I1012 09:33:27.534888 23448 layer_factory.hpp:77] Creating layer ip1_bn
I1012 09:33:27.534895 23448 net.cpp:86] Creating Layer ip1_bn
I1012 09:33:27.534899 23448 net.cpp:408] ip1_bn <- ip1
I1012 09:33:27.534904 23448 net.cpp:369] ip1_bn -> ip1 (in-place)
I1012 09:33:27.535073 23448 net.cpp:124] Setting up ip1_bn
I1012 09:33:27.535078 23448 net.cpp:131] Top shape: 50 512 (25600)
I1012 09:33:27.535080 23448 net.cpp:139] Memory required for data: 19510600
I1012 09:33:27.535087 23448 layer_factory.hpp:77] Creating layer ip1_scale
I1012 09:33:27.535094 23448 net.cpp:86] Creating Layer ip1_scale
I1012 09:33:27.535097 23448 net.cpp:408] ip1_scale <- ip1
I1012 09:33:27.535113 23448 net.cpp:369] ip1_scale -> ip1 (in-place)
I1012 09:33:27.535159 23448 layer_factory.hpp:77] Creating layer ip1_scale
I1012 09:33:27.535260 23448 net.cpp:124] Setting up ip1_scale
I1012 09:33:27.535266 23448 net.cpp:131] Top shape: 50 512 (25600)
I1012 09:33:27.535269 23448 net.cpp:139] Memory required for data: 19613000
I1012 09:33:27.535274 23448 layer_factory.hpp:77] Creating layer ip1_relu
I1012 09:33:27.535279 23448 net.cpp:86] Creating Layer ip1_relu
I1012 09:33:27.535281 23448 net.cpp:408] ip1_relu <- ip1
I1012 09:33:27.535285 23448 net.cpp:369] ip1_relu -> ip1 (in-place)
I1012 09:33:27.536173 23448 net.cpp:124] Setting up ip1_relu
I1012 09:33:27.536183 23448 net.cpp:131] Top shape: 50 512 (25600)
I1012 09:33:27.536198 23448 net.cpp:139] Memory required for data: 19715400
I1012 09:33:27.536202 23448 layer_factory.hpp:77] Creating layer ip2
I1012 09:33:27.536209 23448 net.cpp:86] Creating Layer ip2
I1012 09:33:27.536212 23448 net.cpp:408] ip2 <- ip1
I1012 09:33:27.536217 23448 net.cpp:382] ip2 -> ip2
I1012 09:33:27.536957 23448 net.cpp:124] Setting up ip2
I1012 09:33:27.536967 23448 net.cpp:131] Top shape: 50 10 (500)
I1012 09:33:27.536969 23448 net.cpp:139] Memory required for data: 19717400
I1012 09:33:27.536974 23448 layer_factory.hpp:77] Creating layer loss
I1012 09:33:27.536981 23448 net.cpp:86] Creating Layer loss
I1012 09:33:27.536984 23448 net.cpp:408] loss <- ip2
I1012 09:33:27.536988 23448 net.cpp:408] loss <- label
I1012 09:33:27.536993 23448 net.cpp:382] loss -> loss
I1012 09:33:27.537016 23448 layer_factory.hpp:77] Creating layer loss
…
I1012 09:33:27.537992 23448 solver.cpp:194] Creating test net (#0) specified by net file: lenet_tn.prototxt
I1012 09:33:27.538025 23448 net.cpp:296] The NetState phase (1) differed from the phase (0) specified by a rule in layer mnist
I1012 09:33:27.538137 23448 net.cpp:53] Initializing net from parameters: 
name: "LeNet"
state {
  phase: TEST
}
layer {
  name: "mnist"
  type: "Data"
  top: "data"
  top: "label"
  include {
    phase: TEST
  }
  transform_param {
    scale: 0.00390625
  }
  data_param {
    source: "mnist_test_lmdb"
    batch_size: 100
    backend: LMDB
  }
}
layer {
  name: "conv1"
  type: "Convolution"
  bottom: "data"
  top: "conv1"
  param {
    lr_mult: 1
  }
  param {
    lr_mult: 2
  }
  convolution_param {
    num_output: 32
    kernel_size: 5
    stride: 1
    weight_filler {
      type: "xavier"
    }
    bias_filler {
      type: "constant"
    }
  }
}
layer {
  name: "conv1_bn"
  type: "BatchNorm"
  bottom: "conv1"
  top: "conv1"
  batch_norm_param {
    use_global_stats: false
  }
}
layer {
  name: "conv1_scale"
  type: "Scale"
  bottom: "conv1"
  top: "conv1"
  scale_param {
    bias_term: true
  }
}
layer {
  name: "conv1_relu"
  type: "ReLU"
  bottom: "conv1"
  top: "conv1"
}
layer {
  name: "pool1"
  type: "Pooling"
  bottom: "conv1"
  top: "pool1"
  pooling_param {
    pool: MAX
    kernel_size: 2
    stride: 2
  }
}
layer {
  name: "conv2"
  type: "Convolution"
  bottom: "pool1"
  top: "conv2"
  param {
    lr_mult: 1
  }
  param {
    lr_mult: 2
  }
  convolution_param {
    num_output: 64
    kernel_size: 5
    stride: 1
    weight_filler {
      type: "xavier"
    }
    bias_filler {
      type: "constant"
    }
  }
}
layer {
  name: "conv2_bn"
  type: "BatchNorm"
  bottom: "conv2"
  top: "conv2"
  batch_norm_param {
    use_global_stats: false
  }
}
layer {
  name: "conv2_scale"
  type: "Scale"
  bottom: "conv2"
  top: "conv2"
  scale_param {
    bias_term: true
  }
}
layer {
  name: "conv2_relu"
  type: "ReLU"
  bottom: "conv2"
  top: "conv2"
}
layer {
  name: "pool2"
  type: "Pooling"
  bottom: "conv2"
  top: "pool2"
  pooling_param {
    pool: MAX
    kernel_size: 2
    stride: 2
  }
}
layer {
  name: "ip1"
  type: "InnerProduct"
  bottom: "pool2"
  top: "ip1"
  param {
    lr_mult: 1
  }
  param {
    lr_mult: 2
  }
  inner_product_param {
    num_output: 512
    weight_filler {
      type: "xavier"
    }
    bias_filler {
      type: "constant"
    }
  }
}
layer {
  name: "ip1_bn"
  type: "BatchNorm"
  bottom: "ip1"
  top: "ip1"
  batch_norm_param {
    use_global_stats: false
  }
}
layer {
  name: "ip1_scale"
  type: "Scale"
  bottom: "ip1"
  top: "ip1"
  scale_param {
    bias_term: true
  }
}
layer {
  name: "ip1_relu"
  type: "ReLU"
  bottom: "ip1"
  top: "ip1"
}
layer {
  name: "ip2"
  type: "InnerProduct"
  bottom: "ip1"
  top: "ip2"
  param {
    lr_mult: 1
  }
  param {
    lr_mult: 2
  }
  inner_product_param {
    num_output: 10
    weight_filler {
      type: "xavier"
    }
    bias_filler {
      type: "constant"
    }
  }
}
layer {
  name: "accuracy"
  type: "Accuracy"
  bottom: "ip2"
  bottom: "label"
  top: "accuracy"
  include {
    phase: TEST
  }
}
layer {
  name: "loss"
  type: "SoftmaxWithLoss"
  bottom: "ip2"
  bottom: "label"
  top: "loss"
}
I1012 09:33:27.538220 23448 layer_factory.hpp:77] Creating layer mnist
I1012 09:33:27.538267 23448 db_lmdb.cpp:35] Opened lmdb mnist_test_lmdb
I1012 09:33:27.538280 23448 net.cpp:86] Creating Layer mnist
I1012 09:33:27.538285 23448 net.cpp:382] mnist -> data
I1012 09:33:27.538291 23448 net.cpp:382] mnist -> label
I1012 09:33:27.538420 23448 data_layer.cpp:45] output data size: 100,1,28,28
I1012 09:33:27.539755 23448 net.cpp:124] Setting up mnist
I1012 09:33:27.539795 23448 net.cpp:131] Top shape: 100 1 28 28 (78400)
I1012 09:33:27.539798 23448 net.cpp:131] Top shape: 100 (100)
I1012 09:33:27.539801 23448 net.cpp:139] Memory required for data: 314000
I1012 09:33:27.539806 23448 layer_factory.hpp:77] Creating layer label_mnist_1_split
I1012 09:33:27.539816 23448 net.cpp:86] Creating Layer label_mnist_1_split
I1012 09:33:27.539820 23448 net.cpp:408] label_mnist_1_split <- label
I1012 09:33:27.539825 23448 net.cpp:382] label_mnist_1_split -> label_mnist_1_split_0
I1012 09:33:27.539832 23448 net.cpp:382] label_mnist_1_split -> label_mnist_1_split_1
I1012 09:33:27.539919 23448 net.cpp:124] Setting up label_mnist_1_split
I1012 09:33:27.539924 23448 net.cpp:131] Top shape: 100 (100)
I1012 09:33:27.539927 23448 net.cpp:131] Top shape: 100 (100)
I1012 09:33:27.539942 23448 net.cpp:139] Memory required for data: 314800
I1012 09:33:27.539945 23448 layer_factory.hpp:77] Creating layer conv1
I1012 09:33:27.539968 23448 net.cpp:86] Creating Layer conv1
I1012 09:33:27.539971 23448 net.cpp:408] conv1 <- data
I1012 09:33:27.539988 23448 net.cpp:382] conv1 -> conv1
I1012 09:33:27.542251 23448 net.cpp:124] Setting up conv1
I1012 09:33:27.542268 23448 net.cpp:131] Top shape: 100 32 24 24 (1843200)
I1012 09:33:27.542273 23448 net.cpp:139] Memory required for data: 7687600
I1012 09:33:27.542296 23448 layer_factory.hpp:77] Creating layer conv1_bn
I1012 09:33:27.542304 23448 net.cpp:86] Creating Layer conv1_bn
I1012 09:33:27.542309 23448 net.cpp:408] conv1_bn <- conv1
I1012 09:33:27.542318 23448 net.cpp:369] conv1_bn -> conv1 (in-place)
I1012 09:33:27.542577 23448 net.cpp:124] Setting up conv1_bn
I1012 09:33:27.542585 23448 net.cpp:131] Top shape: 100 32 24 24 (1843200)
I1012 09:33:27.542588 23448 net.cpp:139] Memory required for data: 15060400
I1012 09:33:27.542595 23448 layer_factory.hpp:77] Creating layer conv1_scale
I1012 09:33:27.542603 23448 net.cpp:86] Creating Layer conv1_scale
I1012 09:33:27.542606 23448 net.cpp:408] conv1_scale <- conv1
I1012 09:33:27.542610 23448 net.cpp:369] conv1_scale -> conv1 (in-place)
I1012 09:33:27.542660 23448 layer_factory.hpp:77] Creating layer conv1_scale
I1012 09:33:27.542793 23448 net.cpp:124] Setting up conv1_scale
I1012 09:33:27.542801 23448 net.cpp:131] Top shape: 100 32 24 24 (1843200)
I1012 09:33:27.542816 23448 net.cpp:139] Memory required for data: 22433200
I1012 09:33:27.542821 23448 layer_factory.hpp:77] Creating layer conv1_relu
I1012 09:33:27.542827 23448 net.cpp:86] Creating Layer conv1_relu
I1012 09:33:27.542829 23448 net.cpp:408] conv1_relu <- conv1
I1012 09:33:27.542834 23448 net.cpp:369] conv1_relu -> conv1 (in-place)
I1012 09:33:27.543509 23448 net.cpp:124] Setting up conv1_relu
I1012 09:33:27.543519 23448 net.cpp:131] Top shape: 100 32 24 24 (1843200)
I1012 09:33:27.543551 23448 net.cpp:139] Memory required for data: 29806000
I1012 09:33:27.543555 23448 layer_factory.hpp:77] Creating layer pool1
I1012 09:33:27.543561 23448 net.cpp:86] Creating Layer pool1
I1012 09:33:27.543565 23448 net.cpp:408] pool1 <- conv1
I1012 09:33:27.543568 23448 net.cpp:382] pool1 -> pool1
I1012 09:33:27.543609 23448 net.cpp:124] Setting up pool1
I1012 09:33:27.543617 23448 net.cpp:131] Top shape: 100 32 12 12 (460800)
I1012 09:33:27.543619 23448 net.cpp:139] Memory required for data: 31649200
I1012 09:33:27.543622 23448 layer_factory.hpp:77] Creating layer conv2
I1012 09:33:27.543629 23448 net.cpp:86] Creating Layer conv2
I1012 09:33:27.543633 23448 net.cpp:408] conv2 <- pool1
I1012 09:33:27.543637 23448 net.cpp:382] conv2 -> conv2
I1012 09:33:27.545761 23448 net.cpp:124] Setting up conv2
I1012 09:33:27.545786 23448 net.cpp:131] Top shape: 100 64 8 8 (409600)
I1012 09:33:27.545789 23448 net.cpp:139] Memory required for data: 33287600
I1012 09:33:27.545795 23448 layer_factory.hpp:77] Creating layer conv2_bn
I1012 09:33:27.545802 23448 net.cpp:86] Creating Layer conv2_bn
I1012 09:33:27.545805 23448 net.cpp:408] conv2_bn <- conv2
I1012 09:33:27.545809 23448 net.cpp:369] conv2_bn -> conv2 (in-place)
I1012 09:33:27.545992 23448 net.cpp:124] Setting up conv2_bn
I1012 09:33:27.545998 23448 net.cpp:131] Top shape: 100 64 8 8 (409600)
I1012 09:33:27.546015 23448 net.cpp:139] Memory required for data: 34926000
I1012 09:33:27.546020 23448 layer_factory.hpp:77] Creating layer conv2_scale
I1012 09:33:27.546026 23448 net.cpp:86] Creating Layer conv2_scale
I1012 09:33:27.546028 23448 net.cpp:408] conv2_scale <- conv2
I1012 09:33:27.546032 23448 net.cpp:369] conv2_scale -> conv2 (in-place)
I1012 09:33:27.546078 23448 layer_factory.hpp:77] Creating layer conv2_scale
I1012 09:33:27.546205 23448 net.cpp:124] Setting up conv2_scale
I1012 09:33:27.546211 23448 net.cpp:131] Top shape: 100 64 8 8 (409600)
I1012 09:33:27.546214 23448 net.cpp:139] Memory required for data: 36564400
I1012 09:33:27.546218 23448 layer_factory.hpp:77] Creating layer conv2_relu
I1012 09:33:27.546221 23448 net.cpp:86] Creating Layer conv2_relu
I1012 09:33:27.546224 23448 net.cpp:408] conv2_relu <- conv2
I1012 09:33:27.546227 23448 net.cpp:369] conv2_relu -> conv2 (in-place)
I1012 09:33:27.546809 23448 net.cpp:124] Setting up conv2_relu
I1012 09:33:27.546819 23448 net.cpp:131] Top shape: 100 64 8 8 (409600)
I1012 09:33:27.546823 23448 net.cpp:139] Memory required for data: 38202800
I1012 09:33:27.546825 23448 layer_factory.hpp:77] Creating layer pool2
I1012 09:33:27.546830 23448 net.cpp:86] Creating Layer pool2
I1012 09:33:27.546833 23448 net.cpp:408] pool2 <- conv2
I1012 09:33:27.546838 23448 net.cpp:382] pool2 -> pool2
I1012 09:33:27.546891 23448 net.cpp:124] Setting up pool2
I1012 09:33:27.546896 23448 net.cpp:131] Top shape: 100 64 4 4 (102400)
I1012 09:33:27.546900 23448 net.cpp:139] Memory required for data: 38612400
I1012 09:33:27.546916 23448 layer_factory.hpp:77] Creating layer ip1
I1012 09:33:27.546922 23448 net.cpp:86] Creating Layer ip1
I1012 09:33:27.546926 23448 net.cpp:408] ip1 <- pool2
I1012 09:33:27.546929 23448 net.cpp:382] ip1 -> ip1
I1012 09:33:27.550104 23448 net.cpp:124] Setting up ip1
I1012 09:33:27.550118 23448 net.cpp:131] Top shape: 100 512 (51200)
I1012 09:33:27.550122 23448 net.cpp:139] Memory required for data: 38817200
I1012 09:33:27.550128 23448 layer_factory.hpp:77] Creating layer ip1_bn
I1012 09:33:27.550135 23448 net.cpp:86] Creating Layer ip1_bn
I1012 09:33:27.550139 23448 net.cpp:408] ip1_bn <- ip1
I1012 09:33:27.550145 23448 net.cpp:369] ip1_bn -> ip1 (in-place)
I1012 09:33:27.550340 23448 net.cpp:124] Setting up ip1_bn
I1012 09:33:27.550345 23448 net.cpp:131] Top shape: 100 512 (51200)
I1012 09:33:27.550348 23448 net.cpp:139] Memory required for data: 39022000
I1012 09:33:27.550355 23448 layer_factory.hpp:77] Creating layer ip1_scale
I1012 09:33:27.550359 23448 net.cpp:86] Creating Layer ip1_scale
I1012 09:33:27.550362 23448 net.cpp:408] ip1_scale <- ip1
I1012 09:33:27.550365 23448 net.cpp:369] ip1_scale -> ip1 (in-place)
I1012 09:33:27.550441 23448 layer_factory.hpp:77] Creating layer ip1_scale
I1012 09:33:27.550567 23448 net.cpp:124] Setting up ip1_scale
I1012 09:33:27.550572 23448 net.cpp:131] Top shape: 100 512 (51200)
I1012 09:33:27.550575 23448 net.cpp:139] Memory required for data: 39226800
I1012 09:33:27.550580 23448 layer_factory.hpp:77] Creating layer ip1_relu
I1012 09:33:27.550583 23448 net.cpp:86] Creating Layer ip1_relu
I1012 09:33:27.550585 23448 net.cpp:408] ip1_relu <- ip1
I1012 09:33:27.550590 23448 net.cpp:369] ip1_relu -> ip1 (in-place)
I1012 09:33:27.551317 23448 net.cpp:124] Setting up ip1_relu
I1012 09:33:27.551326 23448 net.cpp:131] Top shape: 100 512 (51200)
I1012 09:33:27.551342 23448 net.cpp:139] Memory required for data: 39431600
I1012 09:33:27.551345 23448 layer_factory.hpp:77] Creating layer ip2
I1012 09:33:27.551367 23448 net.cpp:86] Creating Layer ip2
I1012 09:33:27.551369 23448 net.cpp:408] ip2 <- ip1
I1012 09:33:27.551388 23448 net.cpp:382] ip2 -> ip2
I1012 09:33:27.551525 23448 net.cpp:124] Setting up ip2
I1012 09:33:27.551532 23448 net.cpp:131] Top shape: 100 10 (1000)
I1012 09:33:27.551533 23448 net.cpp:139] Memory required for data: 39435600
I1012 09:33:27.551537 23448 layer_factory.hpp:77] Creating layer ip2_ip2_0_split
I1012 09:33:27.551542 23448 net.cpp:86] Creating Layer ip2_ip2_0_split
I1012 09:33:27.551545 23448 net.cpp:408] ip2_ip2_0_split <- ip2
I1012 09:33:27.551548 23448 net.cpp:382] ip2_ip2_0_split -> ip2_ip2_0_split_0
I1012 09:33:27.551553 23448 net.cpp:382] ip2_ip2_0_split -> ip2_ip2_0_split_1
I1012 09:33:27.551614 23448 net.cpp:124] Setting up ip2_ip2_0_split
I1012 09:33:27.551620 23448 net.cpp:131] Top shape: 100 10 (1000)
I1012 09:33:27.551622 23448 net.cpp:131] Top shape: 100 10 (1000)
I1012 09:33:27.551625 23448 net.cpp:139] Memory required for data: 39443600
I1012 09:33:27.551627 23448 layer_factory.hpp:77] Creating layer accuracy
I1012 09:33:27.551631 23448 net.cpp:86] Creating Layer accuracy
I1012 09:33:27.551635 23448 net.cpp:408] accuracy <- ip2_ip2_0_split_0
I1012 09:33:27.551637 23448 net.cpp:408] accuracy <- label_mnist_1_split_0
I1012 09:33:27.551642 23448 net.cpp:382] accuracy -> accuracy
…
