…
I1012 09:33:00.106786 23434 net.cpp:296] The NetState phase (0) differed from the phase (1) specified by a rule in layer mnist
I1012 09:33:00.106798 23434 net.cpp:296] The NetState phase (0) differed from the phase (1) specified by a rule in layer accuracy
I1012 09:33:00.106881 23434 net.cpp:53] Initializing net from parameters: 
name: "LeNet"
state {
  phase: TRAIN
  level: 0
  stage: ""
}
layer {
  name: "mnist"
  type: "Data"
  top: "data"
  top: "label"
  include {
    phase: TRAIN
  }
  transform_param {
    scale: 0.00390625
  }
  data_param {
    source: "mnist_train_lmdb"
    batch_size: 50
    backend: LMDB
  }
}
layer {
  name: "conv1"
  type: "Convolution"
  bottom: "data"
  top: "conv1"
  param {
    lr_mult: 1
  }
  param {
    lr_mult: 2
  }
  convolution_param {
    num_output: 32
    kernel_size: 5
    stride: 1
    weight_filler {
      type: "xavier"
    }
    bias_filler {
      type: "constant"
    }
  }
}
layer {
  name: "conv1_bn"
  type: "BatchNorm"
  bottom: "conv1"
  top: "conv1"
  batch_norm_param {
    use_global_stats: false
  }
}
layer {
  name: "conv1_scale"
  type: "Scale"
  bottom: "conv1"
  top: "conv1"
  scale_param {
    bias_term: true
  }
}
layer {
  name: "conv1_relu"
  type: "ReLU"
  bottom: "conv1"
  top: "conv1"
}
layer {
  name: "pool1"
  type: "Pooling"
  bottom: "conv1"
  top: "pool1"
  pooling_param {
    pool: MAX
    kernel_size: 2
    stride: 2
  }
}
layer {
  name: "conv2"
  type: "Convolution"
  bottom: "pool1"
  top: "conv2"
  param {
    lr_mult: 1
  }
  param {
    lr_mult: 2
  }
  convolution_param {
    num_output: 64
    kernel_size: 5
    stride: 1
    weight_filler {
      type: "xavier"
    }
    bias_filler {
      type: "constant"
    }
  }
}
layer {
  name: "conv2_bn"
  type: "BatchNorm"
  bottom: "conv2"
  top: "conv2"
  batch_norm_param {
    use_global_stats: false
  }
}
layer {
  name: "conv2_scale"
  type: "Scale"
  bottom: "conv2"
  top: "conv2"
  scale_param {
    bias_term: true
  }
}
layer {
  name: "conv2_relu"
  type: "ReLU"
  bottom: "conv2"
  top: "conv2"
}
layer {
  name: "pool2"
  type: "Pooling"
  bottom: "conv2"
  top: "pool2"
  pooling_param {
    pool: MAX
    kernel_size: 2
    stride: 2
  }
}
layer {
  name: "ip1"
  type: "InnerProduct"
  bottom: "pool2"
  top: "ip1"
  param {
    lr_mult: 1
  }
  param {
    lr_mult: 2
  }
  inner_product_param {
    num_output: 512
    weight_filler {
      type: "xavier"
    }
    bias_filler {
      type: "constant"
    }
  }
}
layer {
  name: "ip1_bn"
  type: "BatchNorm"
  bottom: "ip1"
  top: "ip1"
  batch_norm_param {
    use_global_stats: false
  }
}
layer {
  name: "ip1_scale"
  type: "Scale"
  bottom: "ip1"
  top: "ip1"
  scale_param {
    bias_term: true
  }
}
layer {
  name: "ip1_relu"
  type: "ReLU"
  bottom: "ip1"
  top: "ip1"
}
layer {
  name: "ip2"
  type: "InnerProduct"
  bottom: "ip1"
  top: "ip2"
  param {
    lr_mult: 1
  }
  param {
    lr_mult: 2
  }
  inner_product_param {
    num_output: 10
    weight_filler {
      type: "xavier"
    }
    bias_filler {
      type: "constant"
    }
  }
}
layer {
  name: "loss"
  type: "SoftmaxWithLoss"
  bottom: "ip2"
  bottom: "label"
  top: "loss"
}
I1012 09:33:00.106933 23434 layer_factory.hpp:77] Creating layer mnist
I1012 09:33:00.107059 23434 db_lmdb.cpp:35] Opened lmdb mnist_train_lmdb
I1012 09:33:00.107079 23434 net.cpp:86] Creating Layer mnist
I1012 09:33:00.107097 23434 net.cpp:382] mnist -> data
I1012 09:33:00.107141 23434 net.cpp:382] mnist -> label
I1012 09:33:00.107832 23434 data_layer.cpp:45] output data size: 50,1,28,28
I1012 09:33:00.108904 23434 net.cpp:124] Setting up mnist
I1012 09:33:00.108944 23434 net.cpp:131] Top shape: 50 1 28 28 (39200)
I1012 09:33:00.108948 23434 net.cpp:131] Top shape: 50 (50)
I1012 09:33:00.108952 23434 net.cpp:139] Memory required for data: 157000
I1012 09:33:00.108971 23434 layer_factory.hpp:77] Creating layer conv1
I1012 09:33:00.108986 23434 net.cpp:86] Creating Layer conv1
I1012 09:33:00.108992 23434 net.cpp:408] conv1 <- data
I1012 09:33:00.109002 23434 net.cpp:382] conv1 -> conv1
I1012 09:33:05.154654 23434 net.cpp:124] Setting up conv1
I1012 09:33:05.154702 23434 net.cpp:131] Top shape: 50 32 24 24 (921600)
I1012 09:33:05.154711 23434 net.cpp:139] Memory required for data: 3843400
I1012 09:33:05.154747 23434 layer_factory.hpp:77] Creating layer conv1_bn
I1012 09:33:05.154767 23434 net.cpp:86] Creating Layer conv1_bn
I1012 09:33:05.154776 23434 net.cpp:408] conv1_bn <- conv1
I1012 09:33:05.154788 23434 net.cpp:369] conv1_bn -> conv1 (in-place)
I1012 09:33:05.155277 23434 net.cpp:124] Setting up conv1_bn
I1012 09:33:05.155297 23434 net.cpp:131] Top shape: 50 32 24 24 (921600)
I1012 09:33:05.155304 23434 net.cpp:139] Memory required for data: 7529800
I1012 09:33:05.155323 23434 layer_factory.hpp:77] Creating layer conv1_scale
I1012 09:33:05.155338 23434 net.cpp:86] Creating Layer conv1_scale
I1012 09:33:05.155344 23434 net.cpp:408] conv1_scale <- conv1
I1012 09:33:05.155354 23434 net.cpp:369] conv1_scale -> conv1 (in-place)
I1012 09:33:05.155443 23434 layer_factory.hpp:77] Creating layer conv1_scale
I1012 09:33:05.155696 23434 net.cpp:124] Setting up conv1_scale
I1012 09:33:05.155712 23434 net.cpp:131] Top shape: 50 32 24 24 (921600)
I1012 09:33:05.155719 23434 net.cpp:139] Memory required for data: 11216200
I1012 09:33:05.155730 23434 layer_factory.hpp:77] Creating layer conv1_relu
I1012 09:33:05.155742 23434 net.cpp:86] Creating Layer conv1_relu
I1012 09:33:05.155751 23434 net.cpp:408] conv1_relu <- conv1
I1012 09:33:05.155761 23434 net.cpp:369] conv1_relu -> conv1 (in-place)
I1012 09:33:05.156859 23434 net.cpp:124] Setting up conv1_relu
I1012 09:33:05.156882 23434 net.cpp:131] Top shape: 50 32 24 24 (921600)
I1012 09:33:05.156888 23434 net.cpp:139] Memory required for data: 14902600
I1012 09:33:05.156895 23434 layer_factory.hpp:77] Creating layer pool1
I1012 09:33:05.156908 23434 net.cpp:86] Creating Layer pool1
I1012 09:33:05.156914 23434 net.cpp:408] pool1 <- conv1
I1012 09:33:05.156949 23434 net.cpp:382] pool1 -> pool1
I1012 09:33:05.157052 23434 net.cpp:124] Setting up pool1
I1012 09:33:05.157068 23434 net.cpp:131] Top shape: 50 32 12 12 (230400)
I1012 09:33:05.157074 23434 net.cpp:139] Memory required for data: 15824200
I1012 09:33:05.157080 23434 layer_factory.hpp:77] Creating layer conv2
I1012 09:33:05.157096 23434 net.cpp:86] Creating Layer conv2
I1012 09:33:05.157105 23434 net.cpp:408] conv2 <- pool1
I1012 09:33:05.157117 23434 net.cpp:382] conv2 -> conv2
I1012 09:33:05.162035 23434 net.cpp:124] Setting up conv2
I1012 09:33:05.162061 23434 net.cpp:131] Top shape: 50 64 8 8 (204800)
I1012 09:33:05.162068 23434 net.cpp:139] Memory required for data: 16643400
I1012 09:33:05.162083 23434 layer_factory.hpp:77] Creating layer conv2_bn
I1012 09:33:05.162096 23434 net.cpp:86] Creating Layer conv2_bn
I1012 09:33:05.162103 23434 net.cpp:408] conv2_bn <- conv2
I1012 09:33:05.162112 23434 net.cpp:369] conv2_bn -> conv2 (in-place)
I1012 09:33:05.162470 23434 net.cpp:124] Setting up conv2_bn
I1012 09:33:05.162482 23434 net.cpp:131] Top shape: 50 64 8 8 (204800)
I1012 09:33:05.162488 23434 net.cpp:139] Memory required for data: 17462600
I1012 09:33:05.162498 23434 layer_factory.hpp:77] Creating layer conv2_scale
I1012 09:33:05.162509 23434 net.cpp:86] Creating Layer conv2_scale
I1012 09:33:05.162546 23434 net.cpp:408] conv2_scale <- conv2
I1012 09:33:05.162557 23434 net.cpp:369] conv2_scale -> conv2 (in-place)
I1012 09:33:05.162628 23434 layer_factory.hpp:77] Creating layer conv2_scale
I1012 09:33:05.162825 23434 net.cpp:124] Setting up conv2_scale
I1012 09:33:05.162838 23434 net.cpp:131] Top shape: 50 64 8 8 (204800)
I1012 09:33:05.162844 23434 net.cpp:139] Memory required for data: 18281800
I1012 09:33:05.162853 23434 layer_factory.hpp:77] Creating layer conv2_relu
I1012 09:33:05.162861 23434 net.cpp:86] Creating Layer conv2_relu
I1012 09:33:05.162868 23434 net.cpp:408] conv2_relu <- conv2
I1012 09:33:05.162875 23434 net.cpp:369] conv2_relu -> conv2 (in-place)
I1012 09:33:05.163775 23434 net.cpp:124] Setting up conv2_relu
I1012 09:33:05.163791 23434 net.cpp:131] Top shape: 50 64 8 8 (204800)
I1012 09:33:05.163797 23434 net.cpp:139] Memory required for data: 19101000
I1012 09:33:05.163802 23434 layer_factory.hpp:77] Creating layer pool2
I1012 09:33:05.163812 23434 net.cpp:86] Creating Layer pool2
I1012 09:33:05.163817 23434 net.cpp:408] pool2 <- conv2
I1012 09:33:05.163825 23434 net.cpp:382] pool2 -> pool2
I1012 09:33:05.163895 23434 net.cpp:124] Setting up pool2
I1012 09:33:05.163908 23434 net.cpp:131] Top shape: 50 64 4 4 (51200)
I1012 09:33:05.163913 23434 net.cpp:139] Memory required for data: 19305800
I1012 09:33:05.163918 23434 layer_factory.hpp:77] Creating layer ip1
I1012 09:33:05.163928 23434 net.cpp:86] Creating Layer ip1
I1012 09:33:05.163933 23434 net.cpp:408] ip1 <- pool2
I1012 09:33:05.163941 23434 net.cpp:382] ip1 -> ip1
I1012 09:33:05.169940 23434 net.cpp:124] Setting up ip1
I1012 09:33:05.169970 23434 net.cpp:131] Top shape: 50 512 (25600)
I1012 09:33:05.169975 23434 net.cpp:139] Memory required for data: 19408200
I1012 09:33:05.169987 23434 layer_factory.hpp:77] Creating layer ip1_bn
I1012 09:33:05.170001 23434 net.cpp:86] Creating Layer ip1_bn
I1012 09:33:05.170007 23434 net.cpp:408] ip1_bn <- ip1
I1012 09:33:05.170017 23434 net.cpp:369] ip1_bn -> ip1 (in-place)
I1012 09:33:05.170339 23434 net.cpp:124] Setting up ip1_bn
I1012 09:33:05.170351 23434 net.cpp:131] Top shape: 50 512 (25600)
I1012 09:33:05.170356 23434 net.cpp:139] Memory required for data: 19510600
I1012 09:33:05.170369 23434 layer_factory.hpp:77] Creating layer ip1_scale
I1012 09:33:05.170379 23434 net.cpp:86] Creating Layer ip1_scale
I1012 09:33:05.170385 23434 net.cpp:408] ip1_scale <- ip1
I1012 09:33:05.170392 23434 net.cpp:369] ip1_scale -> ip1 (in-place)
I1012 09:33:05.170451 23434 layer_factory.hpp:77] Creating layer ip1_scale
I1012 09:33:05.170637 23434 net.cpp:124] Setting up ip1_scale
I1012 09:33:05.170648 23434 net.cpp:131] Top shape: 50 512 (25600)
I1012 09:33:05.170653 23434 net.cpp:139] Memory required for data: 19613000
I1012 09:33:05.170661 23434 layer_factory.hpp:77] Creating layer ip1_relu
I1012 09:33:05.170670 23434 net.cpp:86] Creating Layer ip1_relu
I1012 09:33:05.170677 23434 net.cpp:408] ip1_relu <- ip1
I1012 09:33:05.170684 23434 net.cpp:369] ip1_relu -> ip1 (in-place)
I1012 09:33:05.171902 23434 net.cpp:124] Setting up ip1_relu
I1012 09:33:05.171921 23434 net.cpp:131] Top shape: 50 512 (25600)
I1012 09:33:05.171927 23434 net.cpp:139] Memory required for data: 19715400
I1012 09:33:05.171933 23434 layer_factory.hpp:77] Creating layer ip2
I1012 09:33:05.171944 23434 net.cpp:86] Creating Layer ip2
I1012 09:33:05.171950 23434 net.cpp:408] ip2 <- ip1
I1012 09:33:05.171959 23434 net.cpp:382] ip2 -> ip2
I1012 09:33:05.173331 23434 net.cpp:124] Setting up ip2
I1012 09:33:05.173351 23434 net.cpp:131] Top shape: 50 10 (500)
I1012 09:33:05.173355 23434 net.cpp:139] Memory required for data: 19717400
I1012 09:33:05.173365 23434 layer_factory.hpp:77] Creating layer loss
I1012 09:33:05.173377 23434 net.cpp:86] Creating Layer loss
I1012 09:33:05.173383 23434 net.cpp:408] loss <- ip2
I1012 09:33:05.173391 23434 net.cpp:408] loss <- label
I1012 09:33:05.173401 23434 net.cpp:382] loss -> loss
I1012 09:33:05.173418 23434 layer_factory.hpp:77] Creating layer loss
…
I1012 09:33:05.174970 23434 solver.cpp:194] Creating test net (#0) specified by net file: lenet_tn.prototxt
I1012 09:33:05.175014 23434 net.cpp:296] The NetState phase (1) differed from the phase (0) specified by a rule in layer mnist
I1012 09:33:05.175164 23434 net.cpp:53] Initializing net from parameters: 
name: "LeNet"
state {
  phase: TEST
}
layer {
  name: "mnist"
  type: "Data"
  top: "data"
  top: "label"
  include {
    phase: TEST
  }
  transform_param {
    scale: 0.00390625
  }
  data_param {
    source: "mnist_test_lmdb"
    batch_size: 100
    backend: LMDB
  }
}
layer {
  name: "conv1"
  type: "Convolution"
  bottom: "data"
  top: "conv1"
  param {
    lr_mult: 1
  }
  param {
    lr_mult: 2
  }
  convolution_param {
    num_output: 32
    kernel_size: 5
    stride: 1
    weight_filler {
      type: "xavier"
    }
    bias_filler {
      type: "constant"
    }
  }
}
layer {
  name: "conv1_bn"
  type: "BatchNorm"
  bottom: "conv1"
  top: "conv1"
  batch_norm_param {
    use_global_stats: false
  }
}
layer {
  name: "conv1_scale"
  type: "Scale"
  bottom: "conv1"
  top: "conv1"
  scale_param {
    bias_term: true
  }
}
layer {
  name: "conv1_relu"
  type: "ReLU"
  bottom: "conv1"
  top: "conv1"
}
layer {
  name: "pool1"
  type: "Pooling"
  bottom: "conv1"
  top: "pool1"
  pooling_param {
    pool: MAX
    kernel_size: 2
    stride: 2
  }
}
layer {
  name: "conv2"
  type: "Convolution"
  bottom: "pool1"
  top: "conv2"
  param {
    lr_mult: 1
  }
  param {
    lr_mult: 2
  }
  convolution_param {
    num_output: 64
    kernel_size: 5
    stride: 1
    weight_filler {
      type: "xavier"
    }
    bias_filler {
      type: "constant"
    }
  }
}
layer {
  name: "conv2_bn"
  type: "BatchNorm"
  bottom: "conv2"
  top: "conv2"
  batch_norm_param {
    use_global_stats: false
  }
}
layer {
  name: "conv2_scale"
  type: "Scale"
  bottom: "conv2"
  top: "conv2"
  scale_param {
    bias_term: true
  }
}
layer {
  name: "conv2_relu"
  type: "ReLU"
  bottom: "conv2"
  top: "conv2"
}
layer {
  name: "pool2"
  type: "Pooling"
  bottom: "conv2"
  top: "pool2"
  pooling_param {
    pool: MAX
    kernel_size: 2
    stride: 2
  }
}
layer {
  name: "ip1"
  type: "InnerProduct"
  bottom: "pool2"
  top: "ip1"
  param {
    lr_mult: 1
  }
  param {
    lr_mult: 2
  }
  inner_product_param {
    num_output: 512
    weight_filler {
      type: "xavier"
    }
    bias_filler {
      type: "constant"
    }
  }
}
layer {
  name: "ip1_bn"
  type: "BatchNorm"
  bottom: "ip1"
  top: "ip1"
  batch_norm_param {
    use_global_stats: false
  }
}
layer {
  name: "ip1_scale"
  type: "Scale"
  bottom: "ip1"
  top: "ip1"
  scale_param {
    bias_term: true
  }
}
layer {
  name: "ip1_relu"
  type: "ReLU"
  bottom: "ip1"
  top: "ip1"
}
layer {
  name: "ip2"
  type: "InnerProduct"
  bottom: "ip1"
  top: "ip2"
  param {
    lr_mult: 1
  }
  param {
    lr_mult: 2
  }
  inner_product_param {
    num_output: 10
    weight_filler {
      type: "xavier"
    }
    bias_filler {
      type: "constant"
    }
  }
}
layer {
  name: "accuracy"
  type: "Accuracy"
  bottom: "ip2"
  bottom: "label"
  top: "accuracy"
  include {
    phase: TEST
  }
}
layer {
  name: "loss"
  type: "SoftmaxWithLoss"
  bottom: "ip2"
  bottom: "label"
  top: "loss"
}
I1012 09:33:05.175292 23434 layer_factory.hpp:77] Creating layer mnist
I1012 09:33:05.175380 23434 db_lmdb.cpp:35] Opened lmdb mnist_test_lmdb
I1012 09:33:05.175405 23434 net.cpp:86] Creating Layer mnist
I1012 09:33:05.175417 23434 net.cpp:382] mnist -> data
I1012 09:33:05.175431 23434 net.cpp:382] mnist -> label
I1012 09:33:05.175606 23434 data_layer.cpp:45] output data size: 100,1,28,28
I1012 09:33:05.177764 23434 net.cpp:124] Setting up mnist
I1012 09:33:05.177788 23434 net.cpp:131] Top shape: 100 1 28 28 (78400)
I1012 09:33:05.177796 23434 net.cpp:131] Top shape: 100 (100)
I1012 09:33:05.177809 23434 net.cpp:139] Memory required for data: 314000
I1012 09:33:05.177816 23434 layer_factory.hpp:77] Creating layer label_mnist_1_split
I1012 09:33:05.177829 23434 net.cpp:86] Creating Layer label_mnist_1_split
I1012 09:33:05.177835 23434 net.cpp:408] label_mnist_1_split <- label
I1012 09:33:05.177845 23434 net.cpp:382] label_mnist_1_split -> label_mnist_1_split_0
I1012 09:33:05.177857 23434 net.cpp:382] label_mnist_1_split -> label_mnist_1_split_1
I1012 09:33:05.178050 23434 net.cpp:124] Setting up label_mnist_1_split
I1012 09:33:05.178073 23434 net.cpp:131] Top shape: 100 (100)
I1012 09:33:05.178082 23434 net.cpp:131] Top shape: 100 (100)
I1012 09:33:05.178087 23434 net.cpp:139] Memory required for data: 314800
I1012 09:33:05.178093 23434 layer_factory.hpp:77] Creating layer conv1
I1012 09:33:05.178112 23434 net.cpp:86] Creating Layer conv1
I1012 09:33:05.178122 23434 net.cpp:408] conv1 <- data
I1012 09:33:05.178133 23434 net.cpp:382] conv1 -> conv1
I1012 09:33:05.182147 23434 net.cpp:124] Setting up conv1
I1012 09:33:05.182178 23434 net.cpp:131] Top shape: 100 32 24 24 (1843200)
I1012 09:33:05.182184 23434 net.cpp:139] Memory required for data: 7687600
I1012 09:33:05.182199 23434 layer_factory.hpp:77] Creating layer conv1_bn
I1012 09:33:05.182212 23434 net.cpp:86] Creating Layer conv1_bn
I1012 09:33:05.182219 23434 net.cpp:408] conv1_bn <- conv1
I1012 09:33:05.182227 23434 net.cpp:369] conv1_bn -> conv1 (in-place)
I1012 09:33:05.182642 23434 net.cpp:124] Setting up conv1_bn
I1012 09:33:05.182657 23434 net.cpp:131] Top shape: 100 32 24 24 (1843200)
I1012 09:33:05.182662 23434 net.cpp:139] Memory required for data: 15060400
I1012 09:33:05.182677 23434 layer_factory.hpp:77] Creating layer conv1_scale
I1012 09:33:05.182693 23434 net.cpp:86] Creating Layer conv1_scale
I1012 09:33:05.182699 23434 net.cpp:408] conv1_scale <- conv1
I1012 09:33:05.182708 23434 net.cpp:369] conv1_scale -> conv1 (in-place)
I1012 09:33:05.182780 23434 layer_factory.hpp:77] Creating layer conv1_scale
I1012 09:33:05.182986 23434 net.cpp:124] Setting up conv1_scale
I1012 09:33:05.182998 23434 net.cpp:131] Top shape: 100 32 24 24 (1843200)
I1012 09:33:05.183003 23434 net.cpp:139] Memory required for data: 22433200
I1012 09:33:05.183012 23434 layer_factory.hpp:77] Creating layer conv1_relu
I1012 09:33:05.183020 23434 net.cpp:86] Creating Layer conv1_relu
I1012 09:33:05.183027 23434 net.cpp:408] conv1_relu <- conv1
I1012 09:33:05.183033 23434 net.cpp:369] conv1_relu -> conv1 (in-place)
I1012 09:33:05.184223 23434 net.cpp:124] Setting up conv1_relu
I1012 09:33:05.184334 23434 net.cpp:131] Top shape: 100 32 24 24 (1843200)
I1012 09:33:05.184370 23434 net.cpp:139] Memory required for data: 29806000
I1012 09:33:05.184378 23434 layer_factory.hpp:77] Creating layer pool1
I1012 09:33:05.184389 23434 net.cpp:86] Creating Layer pool1
I1012 09:33:05.184396 23434 net.cpp:408] pool1 <- conv1
I1012 09:33:05.184404 23434 net.cpp:382] pool1 -> pool1
I1012 09:33:05.184494 23434 net.cpp:124] Setting up pool1
I1012 09:33:05.184505 23434 net.cpp:131] Top shape: 100 32 12 12 (460800)
I1012 09:33:05.184510 23434 net.cpp:139] Memory required for data: 31649200
I1012 09:33:05.184515 23434 layer_factory.hpp:77] Creating layer conv2
I1012 09:33:05.184530 23434 net.cpp:86] Creating Layer conv2
I1012 09:33:05.184535 23434 net.cpp:408] conv2 <- pool1
I1012 09:33:05.184545 23434 net.cpp:382] conv2 -> conv2
I1012 09:33:05.234644 23434 net.cpp:124] Setting up conv2
I1012 09:33:05.234685 23434 net.cpp:131] Top shape: 100 64 8 8 (409600)
I1012 09:33:05.234692 23434 net.cpp:139] Memory required for data: 33287600
I1012 09:33:05.234712 23434 layer_factory.hpp:77] Creating layer conv2_bn
I1012 09:33:05.234735 23434 net.cpp:86] Creating Layer conv2_bn
I1012 09:33:05.234742 23434 net.cpp:408] conv2_bn <- conv2
I1012 09:33:05.234753 23434 net.cpp:369] conv2_bn -> conv2 (in-place)
I1012 09:33:05.235203 23434 net.cpp:124] Setting up conv2_bn
I1012 09:33:05.235219 23434 net.cpp:131] Top shape: 100 64 8 8 (409600)
I1012 09:33:05.235225 23434 net.cpp:139] Memory required for data: 34926000
I1012 09:33:05.235236 23434 layer_factory.hpp:77] Creating layer conv2_scale
I1012 09:33:05.235247 23434 net.cpp:86] Creating Layer conv2_scale
I1012 09:33:05.235254 23434 net.cpp:408] conv2_scale <- conv2
I1012 09:33:05.235262 23434 net.cpp:369] conv2_scale -> conv2 (in-place)
I1012 09:33:05.235352 23434 layer_factory.hpp:77] Creating layer conv2_scale
I1012 09:33:05.235579 23434 net.cpp:124] Setting up conv2_scale
I1012 09:33:05.235592 23434 net.cpp:131] Top shape: 100 64 8 8 (409600)
I1012 09:33:05.235599 23434 net.cpp:139] Memory required for data: 36564400
I1012 09:33:05.235607 23434 layer_factory.hpp:77] Creating layer conv2_relu
I1012 09:33:05.235618 23434 net.cpp:86] Creating Layer conv2_relu
I1012 09:33:05.235623 23434 net.cpp:408] conv2_relu <- conv2
I1012 09:33:05.235631 23434 net.cpp:369] conv2_relu -> conv2 (in-place)
I1012 09:33:05.236740 23434 net.cpp:124] Setting up conv2_relu
I1012 09:33:05.236759 23434 net.cpp:131] Top shape: 100 64 8 8 (409600)
I1012 09:33:05.236764 23434 net.cpp:139] Memory required for data: 38202800
I1012 09:33:05.236770 23434 layer_factory.hpp:77] Creating layer pool2
I1012 09:33:05.236783 23434 net.cpp:86] Creating Layer pool2
I1012 09:33:05.236788 23434 net.cpp:408] pool2 <- conv2
I1012 09:33:05.236798 23434 net.cpp:382] pool2 -> pool2
I1012 09:33:05.236879 23434 net.cpp:124] Setting up pool2
I1012 09:33:05.236892 23434 net.cpp:131] Top shape: 100 64 4 4 (102400)
I1012 09:33:05.236898 23434 net.cpp:139] Memory required for data: 38612400
I1012 09:33:05.236903 23434 layer_factory.hpp:77] Creating layer ip1
I1012 09:33:05.236914 23434 net.cpp:86] Creating Layer ip1
I1012 09:33:05.236935 23434 net.cpp:408] ip1 <- pool2
I1012 09:33:05.236948 23434 net.cpp:382] ip1 -> ip1
I1012 09:33:05.243001 23434 net.cpp:124] Setting up ip1
I1012 09:33:05.243022 23434 net.cpp:131] Top shape: 100 512 (51200)
I1012 09:33:05.243028 23434 net.cpp:139] Memory required for data: 38817200
I1012 09:33:05.243039 23434 layer_factory.hpp:77] Creating layer ip1_bn
I1012 09:33:05.243052 23434 net.cpp:86] Creating Layer ip1_bn
I1012 09:33:05.243058 23434 net.cpp:408] ip1_bn <- ip1
I1012 09:33:05.243067 23434 net.cpp:369] ip1_bn -> ip1 (in-place)
I1012 09:33:05.243407 23434 net.cpp:124] Setting up ip1_bn
I1012 09:33:05.243419 23434 net.cpp:131] Top shape: 100 512 (51200)
I1012 09:33:05.243424 23434 net.cpp:139] Memory required for data: 39022000
I1012 09:33:05.243438 23434 layer_factory.hpp:77] Creating layer ip1_scale
I1012 09:33:05.243448 23434 net.cpp:86] Creating Layer ip1_scale
I1012 09:33:05.243453 23434 net.cpp:408] ip1_scale <- ip1
I1012 09:33:05.243463 23434 net.cpp:369] ip1_scale -> ip1 (in-place)
I1012 09:33:05.243563 23434 layer_factory.hpp:77] Creating layer ip1_scale
I1012 09:33:05.243772 23434 net.cpp:124] Setting up ip1_scale
I1012 09:33:05.243782 23434 net.cpp:131] Top shape: 100 512 (51200)
I1012 09:33:05.243788 23434 net.cpp:139] Memory required for data: 39226800
I1012 09:33:05.243796 23434 layer_factory.hpp:77] Creating layer ip1_relu
I1012 09:33:05.243806 23434 net.cpp:86] Creating Layer ip1_relu
I1012 09:33:05.243813 23434 net.cpp:408] ip1_relu <- ip1
I1012 09:33:05.243819 23434 net.cpp:369] ip1_relu -> ip1 (in-place)
I1012 09:33:05.245211 23434 net.cpp:124] Setting up ip1_relu
I1012 09:33:05.245231 23434 net.cpp:131] Top shape: 100 512 (51200)
I1012 09:33:05.245237 23434 net.cpp:139] Memory required for data: 39431600
I1012 09:33:05.245244 23434 layer_factory.hpp:77] Creating layer ip2
I1012 09:33:05.245259 23434 net.cpp:86] Creating Layer ip2
I1012 09:33:05.245265 23434 net.cpp:408] ip2 <- ip1
I1012 09:33:05.245276 23434 net.cpp:382] ip2 -> ip2
I1012 09:33:05.245539 23434 net.cpp:124] Setting up ip2
I1012 09:33:05.245553 23434 net.cpp:131] Top shape: 100 10 (1000)
I1012 09:33:05.245558 23434 net.cpp:139] Memory required for data: 39435600
I1012 09:33:05.245566 23434 layer_factory.hpp:77] Creating layer ip2_ip2_0_split
I1012 09:33:05.245575 23434 net.cpp:86] Creating Layer ip2_ip2_0_split
I1012 09:33:05.245581 23434 net.cpp:408] ip2_ip2_0_split <- ip2
I1012 09:33:05.245589 23434 net.cpp:382] ip2_ip2_0_split -> ip2_ip2_0_split_0
I1012 09:33:05.245601 23434 net.cpp:382] ip2_ip2_0_split -> ip2_ip2_0_split_1
I1012 09:33:05.245676 23434 net.cpp:124] Setting up ip2_ip2_0_split
I1012 09:33:05.245687 23434 net.cpp:131] Top shape: 100 10 (1000)
I1012 09:33:05.245692 23434 net.cpp:131] Top shape: 100 10 (1000)
I1012 09:33:05.245697 23434 net.cpp:139] Memory required for data: 39443600
I1012 09:33:05.245702 23434 layer_factory.hpp:77] Creating layer accuracy
I1012 09:33:05.245712 23434 net.cpp:86] Creating Layer accuracy
I1012 09:33:05.245718 23434 net.cpp:408] accuracy <- ip2_ip2_0_split_0
I1012 09:33:05.245725 23434 net.cpp:408] accuracy <- label_mnist_1_split_0
I1012 09:33:05.245733 23434 net.cpp:382] accuracy -> accuracy
…
