…
I1012 09:59:27.530596 24696 net.cpp:296] The NetState phase (0) differed from the phase (1) specified by a rule in layer mnist
I1012 09:59:27.530608 24696 net.cpp:296] The NetState phase (0) differed from the phase (1) specified by a rule in layer accuracy
I1012 09:59:27.530691 24696 net.cpp:53] Initializing net from parameters: 
name: "LeNet"
state {
  phase: TRAIN
  level: 0
  stage: ""
}
layer {
  name: "mnist"
  type: "Data"
  top: "data"
  top: "label"
  include {
    phase: TRAIN
  }
  transform_param {
    scale: 0.00390625
  }
  data_param {
    source: "mnist_train_lmdb"
    batch_size: 50
    backend: LMDB
  }
}
layer {
  name: "conv1"
  type: "Convolution"
  bottom: "data"
  top: "conv1"
  param {
    lr_mult: 1
  }
  param {
    lr_mult: 2
  }
  convolution_param {
    num_output: 32
    kernel_size: 5
    stride: 1
    weight_filler {
      type: "xavier"
    }
    bias_filler {
      type: "constant"
    }
  }
}
layer {
  name: "conv1_bn"
  type: "BatchNorm"
  bottom: "conv1"
  top: "conv1"
  batch_norm_param {
    use_global_stats: false
  }
}
layer {
  name: "conv1_scale"
  type: "Scale"
  bottom: "conv1"
  top: "conv1"
  scale_param {
    bias_term: true
  }
}
layer {
  name: "conv1_relu"
  type: "ReLU"
  bottom: "conv1"
  top: "conv1"
}
layer {
  name: "pool1"
  type: "Pooling"
  bottom: "conv1"
  top: "pool1"
  pooling_param {
    pool: MAX
    kernel_size: 2
    stride: 2
  }
}
layer {
  name: "conv2"
  type: "Convolution"
  bottom: "pool1"
  top: "conv2"
  param {
    lr_mult: 1
  }
  param {
    lr_mult: 2
  }
  convolution_param {
    num_output: 64
    kernel_size: 5
    stride: 1
    weight_filler {
      type: "xavier"
    }
    bias_filler {
      type: "constant"
    }
  }
}
layer {
  name: "conv2_bn"
  type: "BatchNorm"
  bottom: "conv2"
  top: "conv2"
  batch_norm_param {
    use_global_stats: false
  }
}
layer {
  name: "conv2_scale"
  type: "Scale"
  bottom: "conv2"
  top: "conv2"
  scale_param {
    bias_term: true
  }
}
layer {
  name: "conv2_relu"
  type: "ReLU"
  bottom: "conv2"
  top: "conv2"
}
layer {
  name: "pool2"
  type: "Pooling"
  bottom: "conv2"
  top: "pool2"
  pooling_param {
    pool: MAX
    kernel_size: 2
    stride: 2
  }
}
layer {
  name: "ip1"
  type: "InnerProduct"
  bottom: "pool2"
  top: "ip1"
  param {
    lr_mult: 1
  }
  param {
    lr_mult: 2
  }
  inner_product_param {
    num_output: 512
    weight_filler {
      type: "xavier"
    }
    bias_filler {
      type: "constant"
    }
  }
}
layer {
  name: "ip1_bn"
  type: "BatchNorm"
  bottom: "ip1"
  top: "ip1"
  batch_norm_param {
    use_global_stats: false
  }
}
layer {
  name: "ip1_scale"
  type: "Scale"
  bottom: "ip1"
  top: "ip1"
  scale_param {
    bias_term: true
  }
}
layer {
  name: "ip1_relu"
  type: "ReLU"
  bottom: "ip1"
  top: "ip1"
}
layer {
  name: "ip2"
  type: "InnerProduct"
  bottom: "ip1"
  top: "ip2"
  param {
    lr_mult: 1
  }
  param {
    lr_mult: 2
  }
  inner_product_param {
    num_output: 10
    weight_filler {
      type: "xavier"
    }
    bias_filler {
      type: "constant"
    }
  }
}
layer {
  name: "loss"
  type: "SoftmaxWithLoss"
  bottom: "ip2"
  bottom: "label"
  top: "loss"
}
I1012 09:59:27.530778 24696 layer_factory.hpp:77] Creating layer mnist
I1012 09:59:27.530864 24696 db_lmdb.cpp:35] Opened lmdb mnist_train_lmdb
I1012 09:59:27.530905 24696 net.cpp:86] Creating Layer mnist
I1012 09:59:27.530913 24696 net.cpp:382] mnist -> data
I1012 09:59:27.530933 24696 net.cpp:382] mnist -> label
I1012 09:59:27.531692 24696 data_layer.cpp:45] output data size: 50,1,28,28
I1012 09:59:27.532788 24696 net.cpp:124] Setting up mnist
I1012 09:59:27.532815 24696 net.cpp:131] Top shape: 50 1 28 28 (39200)
I1012 09:59:27.532819 24696 net.cpp:131] Top shape: 50 (50)
I1012 09:59:27.532821 24696 net.cpp:139] Memory required for data: 157000
I1012 09:59:27.532826 24696 layer_factory.hpp:77] Creating layer conv1
I1012 09:59:27.532842 24696 net.cpp:86] Creating Layer conv1
I1012 09:59:27.532847 24696 net.cpp:408] conv1 <- data
I1012 09:59:27.532871 24696 net.cpp:382] conv1 -> conv1
I1012 09:59:27.988502 24696 net.cpp:124] Setting up conv1
I1012 09:59:27.988523 24696 net.cpp:131] Top shape: 50 32 24 24 (921600)
I1012 09:59:27.988525 24696 net.cpp:139] Memory required for data: 3843400
I1012 09:59:27.988554 24696 layer_factory.hpp:77] Creating layer conv1_bn
I1012 09:59:27.988564 24696 net.cpp:86] Creating Layer conv1_bn
I1012 09:59:27.988566 24696 net.cpp:408] conv1_bn <- conv1
I1012 09:59:27.988571 24696 net.cpp:369] conv1_bn -> conv1 (in-place)
I1012 09:59:27.988752 24696 net.cpp:124] Setting up conv1_bn
I1012 09:59:27.988757 24696 net.cpp:131] Top shape: 50 32 24 24 (921600)
I1012 09:59:27.988760 24696 net.cpp:139] Memory required for data: 7529800
I1012 09:59:27.988781 24696 layer_factory.hpp:77] Creating layer conv1_scale
I1012 09:59:27.988786 24696 net.cpp:86] Creating Layer conv1_scale
I1012 09:59:27.988788 24696 net.cpp:408] conv1_scale <- conv1
I1012 09:59:27.988792 24696 net.cpp:369] conv1_scale -> conv1 (in-place)
I1012 09:59:27.988827 24696 layer_factory.hpp:77] Creating layer conv1_scale
I1012 09:59:27.988983 24696 net.cpp:124] Setting up conv1_scale
I1012 09:59:27.988989 24696 net.cpp:131] Top shape: 50 32 24 24 (921600)
I1012 09:59:27.988991 24696 net.cpp:139] Memory required for data: 11216200
I1012 09:59:27.988996 24696 layer_factory.hpp:77] Creating layer conv1_relu
I1012 09:59:27.989015 24696 net.cpp:86] Creating Layer conv1_relu
I1012 09:59:27.989018 24696 net.cpp:408] conv1_relu <- conv1
I1012 09:59:27.989022 24696 net.cpp:369] conv1_relu -> conv1 (in-place)
I1012 09:59:27.989428 24696 net.cpp:124] Setting up conv1_relu
I1012 09:59:27.989436 24696 net.cpp:131] Top shape: 50 32 24 24 (921600)
I1012 09:59:27.989439 24696 net.cpp:139] Memory required for data: 14902600
I1012 09:59:27.989441 24696 layer_factory.hpp:77] Creating layer pool1
I1012 09:59:27.989460 24696 net.cpp:86] Creating Layer pool1
I1012 09:59:27.989464 24696 net.cpp:408] pool1 <- conv1
I1012 09:59:27.989466 24696 net.cpp:382] pool1 -> pool1
I1012 09:59:27.989506 24696 net.cpp:124] Setting up pool1
I1012 09:59:27.989511 24696 net.cpp:131] Top shape: 50 32 12 12 (230400)
I1012 09:59:27.989514 24696 net.cpp:139] Memory required for data: 15824200
I1012 09:59:27.989516 24696 layer_factory.hpp:77] Creating layer conv2
I1012 09:59:27.989523 24696 net.cpp:86] Creating Layer conv2
I1012 09:59:27.989526 24696 net.cpp:408] conv2 <- pool1
I1012 09:59:27.989531 24696 net.cpp:382] conv2 -> conv2
I1012 09:59:27.991550 24696 net.cpp:124] Setting up conv2
I1012 09:59:27.991560 24696 net.cpp:131] Top shape: 50 64 8 8 (204800)
I1012 09:59:27.991564 24696 net.cpp:139] Memory required for data: 16643400
I1012 09:59:27.991583 24696 layer_factory.hpp:77] Creating layer conv2_bn
I1012 09:59:27.991587 24696 net.cpp:86] Creating Layer conv2_bn
I1012 09:59:27.991590 24696 net.cpp:408] conv2_bn <- conv2
I1012 09:59:27.991595 24696 net.cpp:369] conv2_bn -> conv2 (in-place)
I1012 09:59:27.991763 24696 net.cpp:124] Setting up conv2_bn
I1012 09:59:27.991770 24696 net.cpp:131] Top shape: 50 64 8 8 (204800)
I1012 09:59:27.991771 24696 net.cpp:139] Memory required for data: 17462600
I1012 09:59:27.991776 24696 layer_factory.hpp:77] Creating layer conv2_scale
I1012 09:59:27.991813 24696 net.cpp:86] Creating Layer conv2_scale
I1012 09:59:27.991818 24696 net.cpp:408] conv2_scale <- conv2
I1012 09:59:27.991822 24696 net.cpp:369] conv2_scale -> conv2 (in-place)
I1012 09:59:27.991889 24696 layer_factory.hpp:77] Creating layer conv2_scale
I1012 09:59:27.992004 24696 net.cpp:124] Setting up conv2_scale
I1012 09:59:27.992010 24696 net.cpp:131] Top shape: 50 64 8 8 (204800)
I1012 09:59:27.992012 24696 net.cpp:139] Memory required for data: 18281800
I1012 09:59:27.992017 24696 layer_factory.hpp:77] Creating layer conv2_relu
I1012 09:59:27.992020 24696 net.cpp:86] Creating Layer conv2_relu
I1012 09:59:27.992023 24696 net.cpp:408] conv2_relu <- conv2
I1012 09:59:27.992027 24696 net.cpp:369] conv2_relu -> conv2 (in-place)
I1012 09:59:27.992434 24696 net.cpp:124] Setting up conv2_relu
I1012 09:59:27.992442 24696 net.cpp:131] Top shape: 50 64 8 8 (204800)
I1012 09:59:27.992444 24696 net.cpp:139] Memory required for data: 19101000
I1012 09:59:27.992447 24696 layer_factory.hpp:77] Creating layer pool2
I1012 09:59:27.992465 24696 net.cpp:86] Creating Layer pool2
I1012 09:59:27.992468 24696 net.cpp:408] pool2 <- conv2
I1012 09:59:27.992472 24696 net.cpp:382] pool2 -> pool2
I1012 09:59:27.992506 24696 net.cpp:124] Setting up pool2
I1012 09:59:27.992511 24696 net.cpp:131] Top shape: 50 64 4 4 (51200)
I1012 09:59:27.992512 24696 net.cpp:139] Memory required for data: 19305800
I1012 09:59:27.992516 24696 layer_factory.hpp:77] Creating layer ip1
I1012 09:59:27.992521 24696 net.cpp:86] Creating Layer ip1
I1012 09:59:27.992522 24696 net.cpp:408] ip1 <- pool2
I1012 09:59:27.992527 24696 net.cpp:382] ip1 -> ip1
I1012 09:59:27.995422 24696 net.cpp:124] Setting up ip1
I1012 09:59:27.995434 24696 net.cpp:131] Top shape: 50 512 (25600)
I1012 09:59:27.995436 24696 net.cpp:139] Memory required for data: 19408200
I1012 09:59:27.995455 24696 layer_factory.hpp:77] Creating layer ip1_bn
I1012 09:59:27.995461 24696 net.cpp:86] Creating Layer ip1_bn
I1012 09:59:27.995465 24696 net.cpp:408] ip1_bn <- ip1
I1012 09:59:27.995468 24696 net.cpp:369] ip1_bn -> ip1 (in-place)
I1012 09:59:27.995630 24696 net.cpp:124] Setting up ip1_bn
I1012 09:59:27.995635 24696 net.cpp:131] Top shape: 50 512 (25600)
I1012 09:59:27.995638 24696 net.cpp:139] Memory required for data: 19510600
I1012 09:59:27.995658 24696 layer_factory.hpp:77] Creating layer ip1_scale
I1012 09:59:27.995663 24696 net.cpp:86] Creating Layer ip1_scale
I1012 09:59:27.995666 24696 net.cpp:408] ip1_scale <- ip1
I1012 09:59:27.995671 24696 net.cpp:369] ip1_scale -> ip1 (in-place)
I1012 09:59:27.995697 24696 layer_factory.hpp:77] Creating layer ip1_scale
I1012 09:59:27.995842 24696 net.cpp:124] Setting up ip1_scale
I1012 09:59:27.995847 24696 net.cpp:131] Top shape: 50 512 (25600)
I1012 09:59:27.995849 24696 net.cpp:139] Memory required for data: 19613000
I1012 09:59:27.995853 24696 layer_factory.hpp:77] Creating layer ip1_relu
I1012 09:59:27.995857 24696 net.cpp:86] Creating Layer ip1_relu
I1012 09:59:27.995860 24696 net.cpp:408] ip1_relu <- ip1
I1012 09:59:27.995863 24696 net.cpp:369] ip1_relu -> ip1 (in-place)
I1012 09:59:27.996506 24696 net.cpp:124] Setting up ip1_relu
I1012 09:59:27.996515 24696 net.cpp:131] Top shape: 50 512 (25600)
I1012 09:59:27.996518 24696 net.cpp:139] Memory required for data: 19715400
I1012 09:59:27.996520 24696 layer_factory.hpp:77] Creating layer ip2
I1012 09:59:27.996541 24696 net.cpp:86] Creating Layer ip2
I1012 09:59:27.996543 24696 net.cpp:408] ip2 <- ip1
I1012 09:59:27.996548 24696 net.cpp:382] ip2 -> ip2
I1012 09:59:27.997269 24696 net.cpp:124] Setting up ip2
I1012 09:59:27.997278 24696 net.cpp:131] Top shape: 50 10 (500)
I1012 09:59:27.997282 24696 net.cpp:139] Memory required for data: 19717400
I1012 09:59:27.997300 24696 layer_factory.hpp:77] Creating layer loss
I1012 09:59:27.997308 24696 net.cpp:86] Creating Layer loss
I1012 09:59:27.997310 24696 net.cpp:408] loss <- ip2
I1012 09:59:27.997313 24696 net.cpp:408] loss <- label
I1012 09:59:27.997318 24696 net.cpp:382] loss -> loss
I1012 09:59:27.997328 24696 layer_factory.hpp:77] Creating layer loss
…
I1012 09:59:27.998302 24696 solver.cpp:194] Creating test net (#0) specified by net file: lenet_tn.prototxt
I1012 09:59:27.998323 24696 net.cpp:296] The NetState phase (1) differed from the phase (0) specified by a rule in layer mnist
I1012 09:59:27.998422 24696 net.cpp:53] Initializing net from parameters: 
name: "LeNet"
state {
  phase: TEST
}
layer {
  name: "mnist"
  type: "Data"
  top: "data"
  top: "label"
  include {
    phase: TEST
  }
  transform_param {
    scale: 0.00390625
  }
  data_param {
    source: "mnist_test_lmdb"
    batch_size: 100
    backend: LMDB
  }
}
layer {
  name: "conv1"
  type: "Convolution"
  bottom: "data"
  top: "conv1"
  param {
    lr_mult: 1
  }
  param {
    lr_mult: 2
  }
  convolution_param {
    num_output: 32
    kernel_size: 5
    stride: 1
    weight_filler {
      type: "xavier"
    }
    bias_filler {
      type: "constant"
    }
  }
}
layer {
  name: "conv1_bn"
  type: "BatchNorm"
  bottom: "conv1"
  top: "conv1"
  batch_norm_param {
    use_global_stats: false
  }
}
layer {
  name: "conv1_scale"
  type: "Scale"
  bottom: "conv1"
  top: "conv1"
  scale_param {
    bias_term: true
  }
}
layer {
  name: "conv1_relu"
  type: "ReLU"
  bottom: "conv1"
  top: "conv1"
}
layer {
  name: "pool1"
  type: "Pooling"
  bottom: "conv1"
  top: "pool1"
  pooling_param {
    pool: MAX
    kernel_size: 2
    stride: 2
  }
}
layer {
  name: "conv2"
  type: "Convolution"
  bottom: "pool1"
  top: "conv2"
  param {
    lr_mult: 1
  }
  param {
    lr_mult: 2
  }
  convolution_param {
    num_output: 64
    kernel_size: 5
    stride: 1
    weight_filler {
      type: "xavier"
    }
    bias_filler {
      type: "constant"
    }
  }
}
layer {
  name: "conv2_bn"
  type: "BatchNorm"
  bottom: "conv2"
  top: "conv2"
  batch_norm_param {
    use_global_stats: false
  }
}
layer {
  name: "conv2_scale"
  type: "Scale"
  bottom: "conv2"
  top: "conv2"
  scale_param {
    bias_term: true
  }
}
layer {
  name: "conv2_relu"
  type: "ReLU"
  bottom: "conv2"
  top: "conv2"
}
layer {
  name: "pool2"
  type: "Pooling"
  bottom: "conv2"
  top: "pool2"
  pooling_param {
    pool: MAX
    kernel_size: 2
    stride: 2
  }
}
layer {
  name: "ip1"
  type: "InnerProduct"
  bottom: "pool2"
  top: "ip1"
  param {
    lr_mult: 1
  }
  param {
    lr_mult: 2
  }
  inner_product_param {
    num_output: 512
    weight_filler {
      type: "xavier"
    }
    bias_filler {
      type: "constant"
    }
  }
}
layer {
  name: "ip1_bn"
  type: "BatchNorm"
  bottom: "ip1"
  top: "ip1"
  batch_norm_param {
    use_global_stats: false
  }
}
layer {
  name: "ip1_scale"
  type: "Scale"
  bottom: "ip1"
  top: "ip1"
  scale_param {
    bias_term: true
  }
}
layer {
  name: "ip1_relu"
  type: "ReLU"
  bottom: "ip1"
  top: "ip1"
}
layer {
  name: "ip2"
  type: "InnerProduct"
  bottom: "ip1"
  top: "ip2"
  param {
    lr_mult: 1
  }
  param {
    lr_mult: 2
  }
  inner_product_param {
    num_output: 10
    weight_filler {
      type: "xavier"
    }
    bias_filler {
      type: "constant"
    }
  }
}
layer {
  name: "accuracy"
  type: "Accuracy"
  bottom: "ip2"
  bottom: "label"
  top: "accuracy"
  include {
    phase: TEST
  }
}
layer {
  name: "loss"
  type: "SoftmaxWithLoss"
  bottom: "ip2"
  bottom: "label"
  top: "loss"
}
I1012 09:59:27.998520 24696 layer_factory.hpp:77] Creating layer mnist
I1012 09:59:27.998567 24696 db_lmdb.cpp:35] Opened lmdb mnist_test_lmdb
I1012 09:59:27.998579 24696 net.cpp:86] Creating Layer mnist
I1012 09:59:27.998586 24696 net.cpp:382] mnist -> data
I1012 09:59:27.998594 24696 net.cpp:382] mnist -> label
I1012 09:59:27.998697 24696 data_layer.cpp:45] output data size: 100,1,28,28
I1012 09:59:27.999941 24696 net.cpp:124] Setting up mnist
I1012 09:59:27.999958 24696 net.cpp:131] Top shape: 100 1 28 28 (78400)
I1012 09:59:27.999961 24696 net.cpp:131] Top shape: 100 (100)
I1012 09:59:27.999963 24696 net.cpp:139] Memory required for data: 314000
I1012 09:59:27.999969 24696 layer_factory.hpp:77] Creating layer label_mnist_1_split
I1012 09:59:27.999975 24696 net.cpp:86] Creating Layer label_mnist_1_split
I1012 09:59:27.999979 24696 net.cpp:408] label_mnist_1_split <- label
I1012 09:59:27.999984 24696 net.cpp:382] label_mnist_1_split -> label_mnist_1_split_0
I1012 09:59:27.999990 24696 net.cpp:382] label_mnist_1_split -> label_mnist_1_split_1
I1012 09:59:28.000062 24696 net.cpp:124] Setting up label_mnist_1_split
I1012 09:59:28.000067 24696 net.cpp:131] Top shape: 100 (100)
I1012 09:59:28.000071 24696 net.cpp:131] Top shape: 100 (100)
I1012 09:59:28.000073 24696 net.cpp:139] Memory required for data: 314800
I1012 09:59:28.000088 24696 layer_factory.hpp:77] Creating layer conv1
I1012 09:59:28.000113 24696 net.cpp:86] Creating Layer conv1
I1012 09:59:28.000114 24696 net.cpp:408] conv1 <- data
I1012 09:59:28.000119 24696 net.cpp:382] conv1 -> conv1
I1012 09:59:28.002831 24696 net.cpp:124] Setting up conv1
I1012 09:59:28.002846 24696 net.cpp:131] Top shape: 100 32 24 24 (1843200)
I1012 09:59:28.002849 24696 net.cpp:139] Memory required for data: 7687600
I1012 09:59:28.002858 24696 layer_factory.hpp:77] Creating layer conv1_bn
I1012 09:59:28.002866 24696 net.cpp:86] Creating Layer conv1_bn
I1012 09:59:28.002869 24696 net.cpp:408] conv1_bn <- conv1
I1012 09:59:28.002873 24696 net.cpp:369] conv1_bn -> conv1 (in-place)
I1012 09:59:28.003082 24696 net.cpp:124] Setting up conv1_bn
I1012 09:59:28.003089 24696 net.cpp:131] Top shape: 100 32 24 24 (1843200)
I1012 09:59:28.003091 24696 net.cpp:139] Memory required for data: 15060400
I1012 09:59:28.003098 24696 layer_factory.hpp:77] Creating layer conv1_scale
I1012 09:59:28.003106 24696 net.cpp:86] Creating Layer conv1_scale
I1012 09:59:28.003110 24696 net.cpp:408] conv1_scale <- conv1
I1012 09:59:28.003114 24696 net.cpp:369] conv1_scale -> conv1 (in-place)
I1012 09:59:28.003178 24696 layer_factory.hpp:77] Creating layer conv1_scale
I1012 09:59:28.003372 24696 net.cpp:124] Setting up conv1_scale
I1012 09:59:28.003377 24696 net.cpp:131] Top shape: 100 32 24 24 (1843200)
I1012 09:59:28.003381 24696 net.cpp:139] Memory required for data: 22433200
I1012 09:59:28.003398 24696 layer_factory.hpp:77] Creating layer conv1_relu
I1012 09:59:28.003404 24696 net.cpp:86] Creating Layer conv1_relu
I1012 09:59:28.003407 24696 net.cpp:408] conv1_relu <- conv1
I1012 09:59:28.003410 24696 net.cpp:369] conv1_relu -> conv1 (in-place)
I1012 09:59:28.004091 24696 net.cpp:124] Setting up conv1_relu
I1012 09:59:28.004101 24696 net.cpp:131] Top shape: 100 32 24 24 (1843200)
I1012 09:59:28.004132 24696 net.cpp:139] Memory required for data: 29806000
I1012 09:59:28.004135 24696 layer_factory.hpp:77] Creating layer pool1
I1012 09:59:28.004154 24696 net.cpp:86] Creating Layer pool1
I1012 09:59:28.004158 24696 net.cpp:408] pool1 <- conv1
I1012 09:59:28.004176 24696 net.cpp:382] pool1 -> pool1
I1012 09:59:28.004257 24696 net.cpp:124] Setting up pool1
I1012 09:59:28.004263 24696 net.cpp:131] Top shape: 100 32 12 12 (460800)
I1012 09:59:28.004266 24696 net.cpp:139] Memory required for data: 31649200
I1012 09:59:28.004268 24696 layer_factory.hpp:77] Creating layer conv2
I1012 09:59:28.004276 24696 net.cpp:86] Creating Layer conv2
I1012 09:59:28.004279 24696 net.cpp:408] conv2 <- pool1
I1012 09:59:28.004283 24696 net.cpp:382] conv2 -> conv2
I1012 09:59:28.006407 24696 net.cpp:124] Setting up conv2
I1012 09:59:28.006419 24696 net.cpp:131] Top shape: 100 64 8 8 (409600)
I1012 09:59:28.006422 24696 net.cpp:139] Memory required for data: 33287600
I1012 09:59:28.006428 24696 layer_factory.hpp:77] Creating layer conv2_bn
I1012 09:59:28.006435 24696 net.cpp:86] Creating Layer conv2_bn
I1012 09:59:28.006438 24696 net.cpp:408] conv2_bn <- conv2
I1012 09:59:28.006441 24696 net.cpp:369] conv2_bn -> conv2 (in-place)
I1012 09:59:28.006636 24696 net.cpp:124] Setting up conv2_bn
I1012 09:59:28.006642 24696 net.cpp:131] Top shape: 100 64 8 8 (409600)
I1012 09:59:28.006644 24696 net.cpp:139] Memory required for data: 34926000
I1012 09:59:28.006649 24696 layer_factory.hpp:77] Creating layer conv2_scale
I1012 09:59:28.006654 24696 net.cpp:86] Creating Layer conv2_scale
I1012 09:59:28.006655 24696 net.cpp:408] conv2_scale <- conv2
I1012 09:59:28.006659 24696 net.cpp:369] conv2_scale -> conv2 (in-place)
I1012 09:59:28.006692 24696 layer_factory.hpp:77] Creating layer conv2_scale
I1012 09:59:28.006825 24696 net.cpp:124] Setting up conv2_scale
I1012 09:59:28.006830 24696 net.cpp:131] Top shape: 100 64 8 8 (409600)
I1012 09:59:28.006834 24696 net.cpp:139] Memory required for data: 36564400
I1012 09:59:28.006837 24696 layer_factory.hpp:77] Creating layer conv2_relu
I1012 09:59:28.006841 24696 net.cpp:86] Creating Layer conv2_relu
I1012 09:59:28.006844 24696 net.cpp:408] conv2_relu <- conv2
I1012 09:59:28.006847 24696 net.cpp:369] conv2_relu -> conv2 (in-place)
I1012 09:59:28.007318 24696 net.cpp:124] Setting up conv2_relu
I1012 09:59:28.007326 24696 net.cpp:131] Top shape: 100 64 8 8 (409600)
I1012 09:59:28.007329 24696 net.cpp:139] Memory required for data: 38202800
I1012 09:59:28.007331 24696 layer_factory.hpp:77] Creating layer pool2
I1012 09:59:28.007338 24696 net.cpp:86] Creating Layer pool2
I1012 09:59:28.007340 24696 net.cpp:408] pool2 <- conv2
I1012 09:59:28.007344 24696 net.cpp:382] pool2 -> pool2
I1012 09:59:28.007380 24696 net.cpp:124] Setting up pool2
I1012 09:59:28.007385 24696 net.cpp:131] Top shape: 100 64 4 4 (102400)
I1012 09:59:28.007387 24696 net.cpp:139] Memory required for data: 38612400
I1012 09:59:28.007390 24696 layer_factory.hpp:77] Creating layer ip1
I1012 09:59:28.007395 24696 net.cpp:86] Creating Layer ip1
I1012 09:59:28.007397 24696 net.cpp:408] ip1 <- pool2
I1012 09:59:28.007402 24696 net.cpp:382] ip1 -> ip1
I1012 09:59:28.010289 24696 net.cpp:124] Setting up ip1
I1012 09:59:28.010300 24696 net.cpp:131] Top shape: 100 512 (51200)
I1012 09:59:28.010303 24696 net.cpp:139] Memory required for data: 38817200
I1012 09:59:28.010308 24696 layer_factory.hpp:77] Creating layer ip1_bn
I1012 09:59:28.010313 24696 net.cpp:86] Creating Layer ip1_bn
I1012 09:59:28.010316 24696 net.cpp:408] ip1_bn <- ip1
I1012 09:59:28.010320 24696 net.cpp:369] ip1_bn -> ip1 (in-place)
I1012 09:59:28.010481 24696 net.cpp:124] Setting up ip1_bn
I1012 09:59:28.010486 24696 net.cpp:131] Top shape: 100 512 (51200)
I1012 09:59:28.010488 24696 net.cpp:139] Memory required for data: 39022000
I1012 09:59:28.010495 24696 layer_factory.hpp:77] Creating layer ip1_scale
I1012 09:59:28.010500 24696 net.cpp:86] Creating Layer ip1_scale
I1012 09:59:28.010504 24696 net.cpp:408] ip1_scale <- ip1
I1012 09:59:28.010519 24696 net.cpp:369] ip1_scale -> ip1 (in-place)
I1012 09:59:28.010552 24696 layer_factory.hpp:77] Creating layer ip1_scale
I1012 09:59:28.010675 24696 net.cpp:124] Setting up ip1_scale
I1012 09:59:28.010680 24696 net.cpp:131] Top shape: 100 512 (51200)
I1012 09:59:28.010682 24696 net.cpp:139] Memory required for data: 39226800
I1012 09:59:28.010686 24696 layer_factory.hpp:77] Creating layer ip1_relu
I1012 09:59:28.010691 24696 net.cpp:86] Creating Layer ip1_relu
I1012 09:59:28.010694 24696 net.cpp:408] ip1_relu <- ip1
I1012 09:59:28.010697 24696 net.cpp:369] ip1_relu -> ip1 (in-place)
I1012 09:59:28.011363 24696 net.cpp:124] Setting up ip1_relu
I1012 09:59:28.011373 24696 net.cpp:131] Top shape: 100 512 (51200)
I1012 09:59:28.011375 24696 net.cpp:139] Memory required for data: 39431600
I1012 09:59:28.011377 24696 layer_factory.hpp:77] Creating layer ip2
I1012 09:59:28.011385 24696 net.cpp:86] Creating Layer ip2
I1012 09:59:28.011387 24696 net.cpp:408] ip2 <- ip1
I1012 09:59:28.011394 24696 net.cpp:382] ip2 -> ip2
I1012 09:59:28.011515 24696 net.cpp:124] Setting up ip2
I1012 09:59:28.011520 24696 net.cpp:131] Top shape: 100 10 (1000)
I1012 09:59:28.011523 24696 net.cpp:139] Memory required for data: 39435600
I1012 09:59:28.011528 24696 layer_factory.hpp:77] Creating layer ip2_ip2_0_split
I1012 09:59:28.011531 24696 net.cpp:86] Creating Layer ip2_ip2_0_split
I1012 09:59:28.011534 24696 net.cpp:408] ip2_ip2_0_split <- ip2
I1012 09:59:28.011538 24696 net.cpp:382] ip2_ip2_0_split -> ip2_ip2_0_split_0
I1012 09:59:28.011543 24696 net.cpp:382] ip2_ip2_0_split -> ip2_ip2_0_split_1
I1012 09:59:28.011577 24696 net.cpp:124] Setting up ip2_ip2_0_split
I1012 09:59:28.011582 24696 net.cpp:131] Top shape: 100 10 (1000)
I1012 09:59:28.011585 24696 net.cpp:131] Top shape: 100 10 (1000)
I1012 09:59:28.011587 24696 net.cpp:139] Memory required for data: 39443600
I1012 09:59:28.011590 24696 layer_factory.hpp:77] Creating layer accuracy
I1012 09:59:28.011595 24696 net.cpp:86] Creating Layer accuracy
I1012 09:59:28.011596 24696 net.cpp:408] accuracy <- ip2_ip2_0_split_0
I1012 09:59:28.011600 24696 net.cpp:408] accuracy <- label_mnist_1_split_0
I1012 09:59:28.011603 24696 net.cpp:382] accuracy -> accuracy
…
